{"name": "model", "layers": [{"class_name": "InputLayer", "config": {"batch_input_shape": [null, 10], "dtype": "float32", "sparse": false, "ragged": false, "name": "input_0"}, "name": "input_0", "inbound_nodes": []}, {"class_name": "Dense", "config": {"name": "Densee711e6e454d8cb8f03d82c408a16fe55d5d9a05951d8e67425d8bdbdb24af4f60ac300450b76e8d3b95ce3d3005a935edd0819304f2d6f9de66d2c1e22591b88_0", "trainable": false, "dtype": "float32", "units": 2, "activation": "relu", "use_bias": true, "kernel_initializer": {"class_name": "GlorotUniform", "config": {"seed": null}}, "bias_initializer": {"class_name": "Zeros", "config": {}}, "kernel_regularizer": null, "bias_regularizer": null, "activity_regularizer": null, "kernel_constraint": null, "bias_constraint": null}, "name": "Densee711e6e454d8cb8f03d82c408a16fe55d5d9a05951d8e67425d8bdbdb24af4f60ac300450b76e8d3b95ce3d3005a935edd0819304f2d6f9de66d2c1e22591b88_0", "inbound_nodes": [[["input_0", 0, 0, {}]]]}, {"class_name": "Dense", "config": {"name": "Dense01fa538b347039f9de14d06460997240cc37b2c4040dabff0756bd602be908349d4389ede6525a5a805a4ce92289bb1eae8c48053a67ddcf0f8b1d33eeb06202_0", "trainable": false, "dtype": "float32", "units": 4, "activation": "relu", "use_bias": true, "kernel_initializer": {"class_name": "GlorotUniform", "config": {"seed": null}}, "bias_initializer": {"class_name": "Zeros", "config": {}}, "kernel_regularizer": null, "bias_regularizer": null, "activity_regularizer": null, "kernel_constraint": null, "bias_constraint": null}, "name": "Dense01fa538b347039f9de14d06460997240cc37b2c4040dabff0756bd602be908349d4389ede6525a5a805a4ce92289bb1eae8c48053a67ddcf0f8b1d33eeb06202_0", "inbound_nodes": [[["Densee711e6e454d8cb8f03d82c408a16fe55d5d9a05951d8e67425d8bdbdb24af4f60ac300450b76e8d3b95ce3d3005a935edd0819304f2d6f9de66d2c1e22591b88_0", 0, 0, {}]]]}, {"class_name": "Dense", "config": {"name": "Densee3c327cf1410790b0c1e887838e978501ed7a482371a02ed388d7034b92bfc6fc6847921ba40f07aabd56719b9471c0564224d61ba8fa7aa48c4d3f163dd3318_0", "trainable": false, "dtype": "float32", "units": 2, "activation": "relu", "use_bias": true, "kernel_initializer": {"class_name": "GlorotUniform", "config": {"seed": null}}, "bias_initializer": {"class_name": "Zeros", "config": {}}, "kernel_regularizer": null, "bias_regularizer": null, "activity_regularizer": null, "kernel_constraint": null, "bias_constraint": null}, "name": "Densee3c327cf1410790b0c1e887838e978501ed7a482371a02ed388d7034b92bfc6fc6847921ba40f07aabd56719b9471c0564224d61ba8fa7aa48c4d3f163dd3318_0", "inbound_nodes": [[["Dense01fa538b347039f9de14d06460997240cc37b2c4040dabff0756bd602be908349d4389ede6525a5a805a4ce92289bb1eae8c48053a67ddcf0f8b1d33eeb06202_0", 0, 0, {}]]]}, {"class_name": "Dense", "config": {"name": "Denseb0eaf14537a1ad018ef3f2f3a8d3c8bbb210add9a7dffe33845d442bb113fba0226a7072ddf5042835d20f44a6837e3eeeeec3b21366504fe52caca18c14c40a_0", "trainable": false, "dtype": "float32", "units": 3, "activation": "relu", "use_bias": true, "kernel_initializer": {"class_name": "GlorotUniform", "config": {"seed": null}}, "bias_initializer": {"class_name": "Zeros", "config": {}}, "kernel_regularizer": null, "bias_regularizer": null, "activity_regularizer": null, "kernel_constraint": null, "bias_constraint": null}, "name": "Denseb0eaf14537a1ad018ef3f2f3a8d3c8bbb210add9a7dffe33845d442bb113fba0226a7072ddf5042835d20f44a6837e3eeeeec3b21366504fe52caca18c14c40a_0", "inbound_nodes": [[["Densee3c327cf1410790b0c1e887838e978501ed7a482371a02ed388d7034b92bfc6fc6847921ba40f07aabd56719b9471c0564224d61ba8fa7aa48c4d3f163dd3318_0", 0, 0, {}]]]}, {"class_name": "Dense", "config": {"name": "Dense5cc1cd6c38db06ee2af34d8551a77df80297a073aa1461067e5d254baf4f60bb4a840315a16a9a8dda1792f39dbe44d850f35b484326c7f6f5b5575f554a528e_0", "trainable": false, "dtype": "float32", "units": 1, "activation": "relu", "use_bias": true, "kernel_initializer": {"class_name": "GlorotUniform", "config": {"seed": null}}, "bias_initializer": {"class_name": "Zeros", "config": {}}, "kernel_regularizer": null, "bias_regularizer": null, "activity_regularizer": null, "kernel_constraint": null, "bias_constraint": null}, "name": "Dense5cc1cd6c38db06ee2af34d8551a77df80297a073aa1461067e5d254baf4f60bb4a840315a16a9a8dda1792f39dbe44d850f35b484326c7f6f5b5575f554a528e_0", "inbound_nodes": [[["Denseb0eaf14537a1ad018ef3f2f3a8d3c8bbb210add9a7dffe33845d442bb113fba0226a7072ddf5042835d20f44a6837e3eeeeec3b21366504fe52caca18c14c40a_0", 0, 0, {}]]]}, {"class_name": "Dense", "config": {"name": "Dense60afc7d292513e12d53999bc1706a43ea4c8f7aa631d085c3d333ea2c92507c03b05b8738bb83ea58fcb87c1369243a6a536018f9f779d723e82233ad4287a6d_0", "trainable": false, "dtype": "float32", "units": 4, "activation": "relu", "use_bias": true, "kernel_initializer": {"class_name": "GlorotUniform", "config": {"seed": null}}, "bias_initializer": {"class_name": "Zeros", "config": {}}, "kernel_regularizer": null, "bias_regularizer": null, "activity_regularizer": null, "kernel_constraint": null, "bias_constraint": null}, "name": "Dense60afc7d292513e12d53999bc1706a43ea4c8f7aa631d085c3d333ea2c92507c03b05b8738bb83ea58fcb87c1369243a6a536018f9f779d723e82233ad4287a6d_0", "inbound_nodes": [[["Dense5cc1cd6c38db06ee2af34d8551a77df80297a073aa1461067e5d254baf4f60bb4a840315a16a9a8dda1792f39dbe44d850f35b484326c7f6f5b5575f554a528e_0", 0, 0, {}]]]}, {"class_name": "Dense", "config": {"name": "Dense85b75b52b7680b9f3b9ecbf06368a7d0fb4b6964ec2ab19ab721fc828bf4f36091aaefeee0bf3ebb2a5e4092cb2c0686af6c27d37044471535b822a8f6531c68_0", "trainable": false, "dtype": "float32", "units": 3, "activation": "relu", "use_bias": true, "kernel_initializer": {"class_name": "GlorotUniform", "config": {"seed": null}}, "bias_initializer": {"class_name": "Zeros", "config": {}}, "kernel_regularizer": null, "bias_regularizer": null, "activity_regularizer": null, "kernel_constraint": null, "bias_constraint": null}, "name": "Dense85b75b52b7680b9f3b9ecbf06368a7d0fb4b6964ec2ab19ab721fc828bf4f36091aaefeee0bf3ebb2a5e4092cb2c0686af6c27d37044471535b822a8f6531c68_0", "inbound_nodes": [[["Dense60afc7d292513e12d53999bc1706a43ea4c8f7aa631d085c3d333ea2c92507c03b05b8738bb83ea58fcb87c1369243a6a536018f9f779d723e82233ad4287a6d_0", 0, 0, {}]]]}, {"class_name": "Dense", "config": {"name": "Dense7cbf8c9b77bf4ec088671e225479d07e845eb258135d632bdc76a9d6131c757b5be787ebeeecd1254d8c92dcb85daa83cdc9c3d3f526887f3a0031b3121fbba7_0", "trainable": false, "dtype": "float32", "units": 3, "activation": "relu", "use_bias": true, "kernel_initializer": {"class_name": "GlorotUniform", "config": {"seed": null}}, "bias_initializer": {"class_name": "Zeros", "config": {}}, "kernel_regularizer": null, "bias_regularizer": null, "activity_regularizer": null, "kernel_constraint": null, "bias_constraint": null}, "name": "Dense7cbf8c9b77bf4ec088671e225479d07e845eb258135d632bdc76a9d6131c757b5be787ebeeecd1254d8c92dcb85daa83cdc9c3d3f526887f3a0031b3121fbba7_0", "inbound_nodes": [[["Dense85b75b52b7680b9f3b9ecbf06368a7d0fb4b6964ec2ab19ab721fc828bf4f36091aaefeee0bf3ebb2a5e4092cb2c0686af6c27d37044471535b822a8f6531c68_0", 0, 0, {}]]]}, {"class_name": "Dense", "config": {"name": "Dense8e9089d471249395e3b8d7416558738d0c9f4c0b90fee858960428fef5762a77324c7d81f1e3043d123789b79f6722e02e3d0f538bcaaed98fa4556d15c8ae08_0", "trainable": false, "dtype": "float32", "units": 1, "activation": "linear", "use_bias": true, "kernel_initializer": {"class_name": "GlorotUniform", "config": {"seed": null}}, "bias_initializer": {"class_name": "Zeros", "config": {}}, "kernel_regularizer": null, "bias_regularizer": null, "activity_regularizer": null, "kernel_constraint": null, "bias_constraint": null}, "name": "Dense8e9089d471249395e3b8d7416558738d0c9f4c0b90fee858960428fef5762a77324c7d81f1e3043d123789b79f6722e02e3d0f538bcaaed98fa4556d15c8ae08_0", "inbound_nodes": [[["Dense7cbf8c9b77bf4ec088671e225479d07e845eb258135d632bdc76a9d6131c757b5be787ebeeecd1254d8c92dcb85daa83cdc9c3d3f526887f3a0031b3121fbba7_0", 0, 0, {}]]]}], "input_layers": [["input_0", 0, 0]], "output_layers": [["Dense8e9089d471249395e3b8d7416558738d0c9f4c0b90fee858960428fef5762a77324c7d81f1e3043d123789b79f6722e02e3d0f538bcaaed98fa4556d15c8ae08_0", 0, 0]]}
{"name": "model", "layers": [{"class_name": "InputLayer", "config": {"batch_input_shape": [null, 10], "dtype": "float32", "sparse": false, "ragged": false, "name": "input_0"}, "name": "input_0", "inbound_nodes": []}, {"class_name": "Dense", "config": {"name": "Densebe2612bdfe58306ea65bbac462c5ecf7c1df641d430b05e5f6720631359a5532b5a9e4b7ec576fdf07c3f51119d3c98d93860ea343fad32c936cb6cce92ce715_0", "trainable": false, "dtype": "float32", "units": 3, "activation": "relu", "use_bias": true, "kernel_initializer": {"class_name": "GlorotUniform", "config": {"seed": null}}, "bias_initializer": {"class_name": "Zeros", "config": {}}, "kernel_regularizer": null, "bias_regularizer": null, "activity_regularizer": null, "kernel_constraint": null, "bias_constraint": null}, "name": "Densebe2612bdfe58306ea65bbac462c5ecf7c1df641d430b05e5f6720631359a5532b5a9e4b7ec576fdf07c3f51119d3c98d93860ea343fad32c936cb6cce92ce715_0", "inbound_nodes": [[["input_0", 0, 0, {}]]]}, {"class_name": "Dense", "config": {"name": "Dense23380d91ad5169c9c8ca323ba760662738a9e5b5a39f2d24e3830be930abb3b60171411dbad86d3b5976b0c9ce57482189416f8720144a9dae8eeff68f569360_0", "trainable": false, "dtype": "float32", "units": 4, "activation": "relu", "use_bias": true, "kernel_initializer": {"class_name": "GlorotUniform", "config": {"seed": null}}, "bias_initializer": {"class_name": "Zeros", "config": {}}, "kernel_regularizer": null, "bias_regularizer": null, "activity_regularizer": null, "kernel_constraint": null, "bias_constraint": null}, "name": "Dense23380d91ad5169c9c8ca323ba760662738a9e5b5a39f2d24e3830be930abb3b60171411dbad86d3b5976b0c9ce57482189416f8720144a9dae8eeff68f569360_0", "inbound_nodes": [[["Densebe2612bdfe58306ea65bbac462c5ecf7c1df641d430b05e5f6720631359a5532b5a9e4b7ec576fdf07c3f51119d3c98d93860ea343fad32c936cb6cce92ce715_0", 0, 0, {}]]]}, {"class_name": "Dense", "config": {"name": "Dense807967d709b6213babdfcf5d66875e65d7d3cb5828405d9cffef2dd1330a3906786fcfdae38efcc35c60448818631ad52af3a523fcd3b5699aafd16b9f41ae12_0", "trainable": false, "dtype": "float32", "units": 4, "activation": "relu", "use_bias": true, "kernel_initializer": {"class_name": "GlorotUniform", "config": {"seed": null}}, "bias_initializer": {"class_name": "Zeros", "config": {}}, "kernel_regularizer": null, "bias_regularizer": null, "activity_regularizer": null, "kernel_constraint": null, "bias_constraint": null}, "name": "Dense807967d709b6213babdfcf5d66875e65d7d3cb5828405d9cffef2dd1330a3906786fcfdae38efcc35c60448818631ad52af3a523fcd3b5699aafd16b9f41ae12_0", "inbound_nodes": [[["Dense23380d91ad5169c9c8ca323ba760662738a9e5b5a39f2d24e3830be930abb3b60171411dbad86d3b5976b0c9ce57482189416f8720144a9dae8eeff68f569360_0", 0, 0, {}]]]}, {"class_name": "Dense", "config": {"name": "Dense9ae8d6dc0654f5dabe1c1b1d241449d75fb12a154e6d0413351e42fd89ba12748fac29b50d39234300b8e7004fa14123e57f0dce5338bd59973c441f0bba8be1_0", "trainable": false, "dtype": "float32", "units": 4, "activation": "relu", "use_bias": true, "kernel_initializer": {"class_name": "GlorotUniform", "config": {"seed": null}}, "bias_initializer": {"class_name": "Zeros", "config": {}}, "kernel_regularizer": null, "bias_regularizer": null, "activity_regularizer": null, "kernel_constraint": null, "bias_constraint": null}, "name": "Dense9ae8d6dc0654f5dabe1c1b1d241449d75fb12a154e6d0413351e42fd89ba12748fac29b50d39234300b8e7004fa14123e57f0dce5338bd59973c441f0bba8be1_0", "inbound_nodes": [[["Dense807967d709b6213babdfcf5d66875e65d7d3cb5828405d9cffef2dd1330a3906786fcfdae38efcc35c60448818631ad52af3a523fcd3b5699aafd16b9f41ae12_0", 0, 0, {}]]]}, {"class_name": "Dense", "config": {"name": "Densebaa7f94c5c7aac5fb7f1e8b83a59fb7e836cd4dee6f1c47478ecc1dc0b3d46506b9606c172d4a9de6ff70fecf5f13dd81b472ca1b0c29449c4291f846fb6488c_0", "trainable": false, "dtype": "float32", "units": 3, "activation": "relu", "use_bias": true, "kernel_initializer": {"class_name": "GlorotUniform", "config": {"seed": null}}, "bias_initializer": {"class_name": "Zeros", "config": {}}, "kernel_regularizer": null, "bias_regularizer": null, "activity_regularizer": null, "kernel_constraint": null, "bias_constraint": null}, "name": "Densebaa7f94c5c7aac5fb7f1e8b83a59fb7e836cd4dee6f1c47478ecc1dc0b3d46506b9606c172d4a9de6ff70fecf5f13dd81b472ca1b0c29449c4291f846fb6488c_0", "inbound_nodes": [[["Dense9ae8d6dc0654f5dabe1c1b1d241449d75fb12a154e6d0413351e42fd89ba12748fac29b50d39234300b8e7004fa14123e57f0dce5338bd59973c441f0bba8be1_0", 0, 0, {}]]]}, {"class_name": "Dense", "config": {"name": "Dense16a2ecd22bb2550902a0a65a3c8da4539ddf7e4a5e26023dbbe036b91893479211110bec34e49af788e0ac814f15872d3e6011645da3d8f6f704ee1235f17dc5_0", "trainable": false, "dtype": "float32", "units": 1, "activation": "relu", "use_bias": true, "kernel_initializer": {"class_name": "GlorotUniform", "config": {"seed": null}}, "bias_initializer": {"class_name": "Zeros", "config": {}}, "kernel_regularizer": null, "bias_regularizer": null, "activity_regularizer": null, "kernel_constraint": null, "bias_constraint": null}, "name": "Dense16a2ecd22bb2550902a0a65a3c8da4539ddf7e4a5e26023dbbe036b91893479211110bec34e49af788e0ac814f15872d3e6011645da3d8f6f704ee1235f17dc5_0", "inbound_nodes": [[["Densebaa7f94c5c7aac5fb7f1e8b83a59fb7e836cd4dee6f1c47478ecc1dc0b3d46506b9606c172d4a9de6ff70fecf5f13dd81b472ca1b0c29449c4291f846fb6488c_0", 0, 0, {}]]]}, {"class_name": "Dense", "config": {"name": "Dense648f172266e477910ace9b3261948ebda4b26d53545b0e1e06617f369d03d43b818546a3cdc0d6b0bab97b5f0f4bcefd982c2870ac5f45a50f0603a84afc95cc_0", "trainable": false, "dtype": "float32", "units": 2, "activation": "relu", "use_bias": true, "kernel_initializer": {"class_name": "GlorotUniform", "config": {"seed": null}}, "bias_initializer": {"class_name": "Zeros", "config": {}}, "kernel_regularizer": null, "bias_regularizer": null, "activity_regularizer": null, "kernel_constraint": null, "bias_constraint": null}, "name": "Dense648f172266e477910ace9b3261948ebda4b26d53545b0e1e06617f369d03d43b818546a3cdc0d6b0bab97b5f0f4bcefd982c2870ac5f45a50f0603a84afc95cc_0", "inbound_nodes": [[["Dense16a2ecd22bb2550902a0a65a3c8da4539ddf7e4a5e26023dbbe036b91893479211110bec34e49af788e0ac814f15872d3e6011645da3d8f6f704ee1235f17dc5_0", 0, 0, {}]]]}, {"class_name": "Dense", "config": {"name": "Densee70ebfb49a1b95c1db72017c0fc0c70d8d95cb2eaa1b9e3563eeed742b459da8ab5a46b7889644677ada0ae110d29d53b0d4c1a2e4a757d137c3b58695f96a79_0", "trainable": false, "dtype": "float32", "units": 4, "activation": "relu", "use_bias": true, "kernel_initializer": {"class_name": "GlorotUniform", "config": {"seed": null}}, "bias_initializer": {"class_name": "Zeros", "config": {}}, "kernel_regularizer": null, "bias_regularizer": null, "activity_regularizer": null, "kernel_constraint": null, "bias_constraint": null}, "name": "Densee70ebfb49a1b95c1db72017c0fc0c70d8d95cb2eaa1b9e3563eeed742b459da8ab5a46b7889644677ada0ae110d29d53b0d4c1a2e4a757d137c3b58695f96a79_0", "inbound_nodes": [[["Dense648f172266e477910ace9b3261948ebda4b26d53545b0e1e06617f369d03d43b818546a3cdc0d6b0bab97b5f0f4bcefd982c2870ac5f45a50f0603a84afc95cc_0", 0, 0, {}]]]}, {"class_name": "Dense", "config": {"name": "Dense2faa9e67b8e665052aca29353e59a8c1b080524b783240c462a1ead3d5a685767c811bd0626397352495298ab1da7a6feac72613d7816a68d20f5ad59bcdea79_0", "trainable": false, "dtype": "float32", "units": 4, "activation": "relu", "use_bias": true, "kernel_initializer": {"class_name": "GlorotUniform", "config": {"seed": null}}, "bias_initializer": {"class_name": "Zeros", "config": {}}, "kernel_regularizer": null, "bias_regularizer": null, "activity_regularizer": null, "kernel_constraint": null, "bias_constraint": null}, "name": "Dense2faa9e67b8e665052aca29353e59a8c1b080524b783240c462a1ead3d5a685767c811bd0626397352495298ab1da7a6feac72613d7816a68d20f5ad59bcdea79_0", "inbound_nodes": [[["Densee70ebfb49a1b95c1db72017c0fc0c70d8d95cb2eaa1b9e3563eeed742b459da8ab5a46b7889644677ada0ae110d29d53b0d4c1a2e4a757d137c3b58695f96a79_0", 0, 0, {}]]]}, {"class_name": "Dense", "config": {"name": "Dense0613f91063ae1695f55f59a89e599676e01b254199d9ba27b8d246749850931dfef540bd74c339c7b9ff6e9201aa5d0477a5bcdfe422c42ec3709418090fb63c_0", "trainable": false, "dtype": "float32", "units": 1, "activation": "linear", "use_bias": true, "kernel_initializer": {"class_name": "GlorotUniform", "config": {"seed": null}}, "bias_initializer": {"class_name": "Zeros", "config": {}}, "kernel_regularizer": null, "bias_regularizer": null, "activity_regularizer": null, "kernel_constraint": null, "bias_constraint": null}, "name": "Dense0613f91063ae1695f55f59a89e599676e01b254199d9ba27b8d246749850931dfef540bd74c339c7b9ff6e9201aa5d0477a5bcdfe422c42ec3709418090fb63c_0", "inbound_nodes": [[["Dense2faa9e67b8e665052aca29353e59a8c1b080524b783240c462a1ead3d5a685767c811bd0626397352495298ab1da7a6feac72613d7816a68d20f5ad59bcdea79_0", 0, 0, {}]]]}], "input_layers": [["input_0", 0, 0]], "output_layers": [["Dense0613f91063ae1695f55f59a89e599676e01b254199d9ba27b8d246749850931dfef540bd74c339c7b9ff6e9201aa5d0477a5bcdfe422c42ec3709418090fb63c_0", 0, 0]]}
{"name": "model", "layers": [{"class_name": "InputLayer", "config": {"batch_input_shape": [null, 10], "dtype": "float32", "sparse": false, "ragged": false, "name": "input_0"}, "name": "input_0", "inbound_nodes": []}, {"class_name": "Dense", "config": {"name": "Dense52c2fd52bd0911375d0f70310bc27ee458b90f7330be3ec8c9b347f785f87006ec01d97fb1b2bd63c85af38321c93f1471c7b2ed3a039e1f8c89e26a9130674a_0", "trainable": false, "dtype": "float32", "units": 1, "activation": "relu", "use_bias": true, "kernel_initializer": {"class_name": "GlorotUniform", "config": {"seed": null}}, "bias_initializer": {"class_name": "Zeros", "config": {}}, "kernel_regularizer": null, "bias_regularizer": null, "activity_regularizer": null, "kernel_constraint": null, "bias_constraint": null}, "name": "Dense52c2fd52bd0911375d0f70310bc27ee458b90f7330be3ec8c9b347f785f87006ec01d97fb1b2bd63c85af38321c93f1471c7b2ed3a039e1f8c89e26a9130674a_0", "inbound_nodes": [[["input_0", 0, 0, {}]]]}, {"class_name": "Dense", "config": {"name": "Densec125ed654094dfc67f989df1bfe4d7eaa4bf36e6cbdcb07d27929af0f834713aff55c2ff89bdf4095d0a8ce6acf4eafdc8cfee062a5a38558c052eb9132a07e1_0", "trainable": false, "dtype": "float32", "units": 2, "activation": "relu", "use_bias": true, "kernel_initializer": {"class_name": "GlorotUniform", "config": {"seed": null}}, "bias_initializer": {"class_name": "Zeros", "config": {}}, "kernel_regularizer": null, "bias_regularizer": null, "activity_regularizer": null, "kernel_constraint": null, "bias_constraint": null}, "name": "Densec125ed654094dfc67f989df1bfe4d7eaa4bf36e6cbdcb07d27929af0f834713aff55c2ff89bdf4095d0a8ce6acf4eafdc8cfee062a5a38558c052eb9132a07e1_0", "inbound_nodes": [[["Dense52c2fd52bd0911375d0f70310bc27ee458b90f7330be3ec8c9b347f785f87006ec01d97fb1b2bd63c85af38321c93f1471c7b2ed3a039e1f8c89e26a9130674a_0", 0, 0, {}]]]}, {"class_name": "Dense", "config": {"name": "Dense48e3767d9bae2c6c5748941ecb30d300df0c7ddf33ac243e119947bc998a5a75dc753cd7bcfadf627d7b8b830c4228aac97b1e9cc389f200c72debaab28593db_0", "trainable": false, "dtype": "float32", "units": 2, "activation": "relu", "use_bias": true, "kernel_initializer": {"class_name": "GlorotUniform", "config": {"seed": null}}, "bias_initializer": {"class_name": "Zeros", "config": {}}, "kernel_regularizer": null, "bias_regularizer": null, "activity_regularizer": null, "kernel_constraint": null, "bias_constraint": null}, "name": "Dense48e3767d9bae2c6c5748941ecb30d300df0c7ddf33ac243e119947bc998a5a75dc753cd7bcfadf627d7b8b830c4228aac97b1e9cc389f200c72debaab28593db_0", "inbound_nodes": [[["Densec125ed654094dfc67f989df1bfe4d7eaa4bf36e6cbdcb07d27929af0f834713aff55c2ff89bdf4095d0a8ce6acf4eafdc8cfee062a5a38558c052eb9132a07e1_0", 0, 0, {}]]]}, {"class_name": "Dense", "config": {"name": "Densec18d840319dfbd01083b7efa2fbb5ad44d439e4f065092657deb8224d463602647f12e57af4e2aef30a062885dacf2dfa68097716d5fb28d3ccab64ba2505c7f_0", "trainable": false, "dtype": "float32", "units": 2, "activation": "relu", "use_bias": true, "kernel_initializer": {"class_name": "GlorotUniform", "config": {"seed": null}}, "bias_initializer": {"class_name": "Zeros", "config": {}}, "kernel_regularizer": null, "bias_regularizer": null, "activity_regularizer": null, "kernel_constraint": null, "bias_constraint": null}, "name": "Densec18d840319dfbd01083b7efa2fbb5ad44d439e4f065092657deb8224d463602647f12e57af4e2aef30a062885dacf2dfa68097716d5fb28d3ccab64ba2505c7f_0", "inbound_nodes": [[["Dense48e3767d9bae2c6c5748941ecb30d300df0c7ddf33ac243e119947bc998a5a75dc753cd7bcfadf627d7b8b830c4228aac97b1e9cc389f200c72debaab28593db_0", 0, 0, {}]]]}, {"class_name": "Dense", "config": {"name": "Dense6805bcc4416f9c8000c9681ed20dfe04eb08cdce76b37b5832dc9e3b1c03811ba551c8072a7cb4b13e523422950710953f3c67ccb206565e599caefa1f80ae96_0", "trainable": false, "dtype": "float32", "units": 1, "activation": "relu", "use_bias": true, "kernel_initializer": {"class_name": "GlorotUniform", "config": {"seed": null}}, "bias_initializer": {"class_name": "Zeros", "config": {}}, "kernel_regularizer": null, "bias_regularizer": null, "activity_regularizer": null, "kernel_constraint": null, "bias_constraint": null}, "name": "Dense6805bcc4416f9c8000c9681ed20dfe04eb08cdce76b37b5832dc9e3b1c03811ba551c8072a7cb4b13e523422950710953f3c67ccb206565e599caefa1f80ae96_0", "inbound_nodes": [[["Densec18d840319dfbd01083b7efa2fbb5ad44d439e4f065092657deb8224d463602647f12e57af4e2aef30a062885dacf2dfa68097716d5fb28d3ccab64ba2505c7f_0", 0, 0, {}]]]}, {"class_name": "Dense", "config": {"name": "Densef966e5bf1a82404e6322b3009ff5a07941865f588693db133b96f5e6ab121e86dd120a92b2cd66f27d412b7b1508a7c646241633eccbe6fb2a88a5bda6240521_0", "trainable": false, "dtype": "float32", "units": 4, "activation": "relu", "use_bias": true, "kernel_initializer": {"class_name": "GlorotUniform", "config": {"seed": null}}, "bias_initializer": {"class_name": "Zeros", "config": {}}, "kernel_regularizer": null, "bias_regularizer": null, "activity_regularizer": null, "kernel_constraint": null, "bias_constraint": null}, "name": "Densef966e5bf1a82404e6322b3009ff5a07941865f588693db133b96f5e6ab121e86dd120a92b2cd66f27d412b7b1508a7c646241633eccbe6fb2a88a5bda6240521_0", "inbound_nodes": [[["Dense6805bcc4416f9c8000c9681ed20dfe04eb08cdce76b37b5832dc9e3b1c03811ba551c8072a7cb4b13e523422950710953f3c67ccb206565e599caefa1f80ae96_0", 0, 0, {}]]]}, {"class_name": "Dense", "config": {"name": "Dense9b60e966edca60dc1b9517777e4000f24aa817a712e17a95045808258010d8cec7185f0131d8f17c83c5576c05cb6f0b0f9cfcaf3533ab31173279d524687be5_0", "trainable": false, "dtype": "float32", "units": 3, "activation": "relu", "use_bias": true, "kernel_initializer": {"class_name": "GlorotUniform", "config": {"seed": null}}, "bias_initializer": {"class_name": "Zeros", "config": {}}, "kernel_regularizer": null, "bias_regularizer": null, "activity_regularizer": null, "kernel_constraint": null, "bias_constraint": null}, "name": "Dense9b60e966edca60dc1b9517777e4000f24aa817a712e17a95045808258010d8cec7185f0131d8f17c83c5576c05cb6f0b0f9cfcaf3533ab31173279d524687be5_0", "inbound_nodes": [[["Densef966e5bf1a82404e6322b3009ff5a07941865f588693db133b96f5e6ab121e86dd120a92b2cd66f27d412b7b1508a7c646241633eccbe6fb2a88a5bda6240521_0", 0, 0, {}]]]}, {"class_name": "Dense", "config": {"name": "Dense736d7ae02211e6e143b02fa935b4253e53fc3221fcf40e5d30c632cec1efef7c701ac1d819031aa1293da920f6c09f6698da1a667748a7335d5643631908b234_0", "trainable": false, "dtype": "float32", "units": 1, "activation": "linear", "use_bias": true, "kernel_initializer": {"class_name": "GlorotUniform", "config": {"seed": null}}, "bias_initializer": {"class_name": "Zeros", "config": {}}, "kernel_regularizer": null, "bias_regularizer": null, "activity_regularizer": null, "kernel_constraint": null, "bias_constraint": null}, "name": "Dense736d7ae02211e6e143b02fa935b4253e53fc3221fcf40e5d30c632cec1efef7c701ac1d819031aa1293da920f6c09f6698da1a667748a7335d5643631908b234_0", "inbound_nodes": [[["Dense9b60e966edca60dc1b9517777e4000f24aa817a712e17a95045808258010d8cec7185f0131d8f17c83c5576c05cb6f0b0f9cfcaf3533ab31173279d524687be5_0", 0, 0, {}]]]}], "input_layers": [["input_0", 0, 0]], "output_layers": [["Dense736d7ae02211e6e143b02fa935b4253e53fc3221fcf40e5d30c632cec1efef7c701ac1d819031aa1293da920f6c09f6698da1a667748a7335d5643631908b234_0", 0, 0]]}
{"name": "model", "layers": [{"class_name": "InputLayer", "config": {"batch_input_shape": [null, 10], "dtype": "float32", "sparse": false, "ragged": false, "name": "input_0"}, "name": "input_0", "inbound_nodes": []}, {"class_name": "Dense", "config": {"name": "Dense52c2fd52bd0911375d0f70310bc27ee458b90f7330be3ec8c9b347f785f87006ec01d97fb1b2bd63c85af38321c93f1471c7b2ed3a039e1f8c89e26a9130674a_0", "trainable": false, "dtype": "float32", "units": 1, "activation": "relu", "use_bias": true, "kernel_initializer": {"class_name": "GlorotUniform", "config": {"seed": null}}, "bias_initializer": {"class_name": "Zeros", "config": {}}, "kernel_regularizer": null, "bias_regularizer": null, "activity_regularizer": null, "kernel_constraint": null, "bias_constraint": null}, "name": "Dense52c2fd52bd0911375d0f70310bc27ee458b90f7330be3ec8c9b347f785f87006ec01d97fb1b2bd63c85af38321c93f1471c7b2ed3a039e1f8c89e26a9130674a_0", "inbound_nodes": [[["input_0", 0, 0, {}]]]}, {"class_name": "Dense", "config": {"name": "Densec125ed654094dfc67f989df1bfe4d7eaa4bf36e6cbdcb07d27929af0f834713aff55c2ff89bdf4095d0a8ce6acf4eafdc8cfee062a5a38558c052eb9132a07e1_0", "trainable": false, "dtype": "float32", "units": 2, "activation": "relu", "use_bias": true, "kernel_initializer": {"class_name": "GlorotUniform", "config": {"seed": null}}, "bias_initializer": {"class_name": "Zeros", "config": {}}, "kernel_regularizer": null, "bias_regularizer": null, "activity_regularizer": null, "kernel_constraint": null, "bias_constraint": null}, "name": "Densec125ed654094dfc67f989df1bfe4d7eaa4bf36e6cbdcb07d27929af0f834713aff55c2ff89bdf4095d0a8ce6acf4eafdc8cfee062a5a38558c052eb9132a07e1_0", "inbound_nodes": [[["Dense52c2fd52bd0911375d0f70310bc27ee458b90f7330be3ec8c9b347f785f87006ec01d97fb1b2bd63c85af38321c93f1471c7b2ed3a039e1f8c89e26a9130674a_0", 0, 0, {}]]]}, {"class_name": "Dense", "config": {"name": "Dense52acc7e0e4288fe28a52583bcba235f4c114431e7919fe9afe4431aa2c345e1bad2610ba803acbaea9af69627a856aae140a70ad80c15d20f610df43bd47ab5e_0", "trainable": false, "dtype": "float32", "units": 1, "activation": "relu", "use_bias": true, "kernel_initializer": {"class_name": "GlorotUniform", "config": {"seed": null}}, "bias_initializer": {"class_name": "Zeros", "config": {}}, "kernel_regularizer": null, "bias_regularizer": null, "activity_regularizer": null, "kernel_constraint": null, "bias_constraint": null}, "name": "Dense52acc7e0e4288fe28a52583bcba235f4c114431e7919fe9afe4431aa2c345e1bad2610ba803acbaea9af69627a856aae140a70ad80c15d20f610df43bd47ab5e_0", "inbound_nodes": [[["Densec125ed654094dfc67f989df1bfe4d7eaa4bf36e6cbdcb07d27929af0f834713aff55c2ff89bdf4095d0a8ce6acf4eafdc8cfee062a5a38558c052eb9132a07e1_0", 0, 0, {}]]]}, {"class_name": "Dense", "config": {"name": "Dense04626d85dbf4f5e4cc22dbbd2266838d3a721980ac9210139e7e23e318b68bc5b9ea38ba571dd789e117d13f5f2d219b4b9fbc605eef69aa0f4ed043a4affae0_0", "trainable": true, "dtype": "float32", "units": 3, "activation": "relu", "use_bias": true, "kernel_initializer": {"class_name": "GlorotUniform", "config": {"seed": null}}, "bias_initializer": {"class_name": "Zeros", "config": {}}, "kernel_regularizer": null, "bias_regularizer": null, "activity_regularizer": null, "kernel_constraint": null, "bias_constraint": null}, "name": "Dense04626d85dbf4f5e4cc22dbbd2266838d3a721980ac9210139e7e23e318b68bc5b9ea38ba571dd789e117d13f5f2d219b4b9fbc605eef69aa0f4ed043a4affae0_0", "inbound_nodes": [[["Dense52acc7e0e4288fe28a52583bcba235f4c114431e7919fe9afe4431aa2c345e1bad2610ba803acbaea9af69627a856aae140a70ad80c15d20f610df43bd47ab5e_0", 0, 0, {}]]]}, {"class_name": "Dense", "config": {"name": "Densebad58d9f49051e8fcd1d0e71ec0d9bb2645543bcf88c0030523bc14c040132b15c23716bf2dd3821773cfd3c7ef914078ae8b72a32d2b4eff25dd314bf9d8cac_0", "trainable": true, "dtype": "float32", "units": 3, "activation": "relu", "use_bias": true, "kernel_initializer": {"class_name": "GlorotUniform", "config": {"seed": null}}, "bias_initializer": {"class_name": "Zeros", "config": {}}, "kernel_regularizer": null, "bias_regularizer": null, "activity_regularizer": null, "kernel_constraint": null, "bias_constraint": null}, "name": "Densebad58d9f49051e8fcd1d0e71ec0d9bb2645543bcf88c0030523bc14c040132b15c23716bf2dd3821773cfd3c7ef914078ae8b72a32d2b4eff25dd314bf9d8cac_0", "inbound_nodes": [[["Dense04626d85dbf4f5e4cc22dbbd2266838d3a721980ac9210139e7e23e318b68bc5b9ea38ba571dd789e117d13f5f2d219b4b9fbc605eef69aa0f4ed043a4affae0_0", 0, 0, {}]]]}, {"class_name": "Dense", "config": {"name": "Denseaf56a81b649136bb6403f3c8d86a5719c54a22f9065ed190771bab187d12d9594dad78e7f4f2751a17d706139354515a79753adc16593bfe2242ad031ea3d578_0", "trainable": true, "dtype": "float32", "units": 1, "activation": "relu", "use_bias": true, "kernel_initializer": {"class_name": "GlorotUniform", "config": {"seed": null}}, "bias_initializer": {"class_name": "Zeros", "config": {}}, "kernel_regularizer": null, "bias_regularizer": null, "activity_regularizer": null, "kernel_constraint": null, "bias_constraint": null}, "name": "Denseaf56a81b649136bb6403f3c8d86a5719c54a22f9065ed190771bab187d12d9594dad78e7f4f2751a17d706139354515a79753adc16593bfe2242ad031ea3d578_0", "inbound_nodes": [[["Densebad58d9f49051e8fcd1d0e71ec0d9bb2645543bcf88c0030523bc14c040132b15c23716bf2dd3821773cfd3c7ef914078ae8b72a32d2b4eff25dd314bf9d8cac_0", 0, 0, {}]]]}, {"class_name": "Dense", "config": {"name": "Dense8d62b2e64359a1e88d4f844813cab33656b4ed7fb9d1df835721b35007fe128278eed4ab72f42ed10b31f2a6779d7538ee8aa08190b645eddc99d0482c8472e1_0", "trainable": true, "dtype": "float32", "units": 3, "activation": "relu", "use_bias": true, "kernel_initializer": {"class_name": "GlorotUniform", "config": {"seed": null}}, "bias_initializer": {"class_name": "Zeros", "config": {}}, "kernel_regularizer": null, "bias_regularizer": null, "activity_regularizer": null, "kernel_constraint": null, "bias_constraint": null}, "name": "Dense8d62b2e64359a1e88d4f844813cab33656b4ed7fb9d1df835721b35007fe128278eed4ab72f42ed10b31f2a6779d7538ee8aa08190b645eddc99d0482c8472e1_0", "inbound_nodes": [[["Denseaf56a81b649136bb6403f3c8d86a5719c54a22f9065ed190771bab187d12d9594dad78e7f4f2751a17d706139354515a79753adc16593bfe2242ad031ea3d578_0", 0, 0, {}]]]}, {"class_name": "Dense", "config": {"name": "Densefe9ce7a60bec7d5e90482efb6c3322cd847f67f57e604ae9ea6fbfb47749b1226f68758687afdb449dc4e43e808eddd484e41934b16e6348219c43ecd53212e8_0", "trainable": true, "dtype": "float32", "units": 1, "activation": "relu", "use_bias": true, "kernel_initializer": {"class_name": "GlorotUniform", "config": {"seed": null}}, "bias_initializer": {"class_name": "Zeros", "config": {}}, "kernel_regularizer": null, "bias_regularizer": null, "activity_regularizer": null, "kernel_constraint": null, "bias_constraint": null}, "name": "Densefe9ce7a60bec7d5e90482efb6c3322cd847f67f57e604ae9ea6fbfb47749b1226f68758687afdb449dc4e43e808eddd484e41934b16e6348219c43ecd53212e8_0", "inbound_nodes": [[["Dense8d62b2e64359a1e88d4f844813cab33656b4ed7fb9d1df835721b35007fe128278eed4ab72f42ed10b31f2a6779d7538ee8aa08190b645eddc99d0482c8472e1_0", 0, 0, {}]]]}, {"class_name": "Dense", "config": {"name": "Densed23df461ffce8ad21d92a84ae34cb8743a6b915a4cabdd489e11b62ff85e851c7f142f4a7f817a1db0cc5b2ed399b2a54b13ebfcc80e4437f185b08aa96cd463_0", "trainable": true, "dtype": "float32", "units": 1, "activation": "linear", "use_bias": true, "kernel_initializer": {"class_name": "GlorotUniform", "config": {"seed": null}}, "bias_initializer": {"class_name": "Zeros", "config": {}}, "kernel_regularizer": null, "bias_regularizer": null, "activity_regularizer": null, "kernel_constraint": null, "bias_constraint": null}, "name": "Densed23df461ffce8ad21d92a84ae34cb8743a6b915a4cabdd489e11b62ff85e851c7f142f4a7f817a1db0cc5b2ed399b2a54b13ebfcc80e4437f185b08aa96cd463_0", "inbound_nodes": [[["Densefe9ce7a60bec7d5e90482efb6c3322cd847f67f57e604ae9ea6fbfb47749b1226f68758687afdb449dc4e43e808eddd484e41934b16e6348219c43ecd53212e8_0", 0, 0, {}]]]}], "input_layers": [["input_0", 0, 0]], "output_layers": [["Densed23df461ffce8ad21d92a84ae34cb8743a6b915a4cabdd489e11b62ff85e851c7f142f4a7f817a1db0cc5b2ed399b2a54b13ebfcc80e4437f185b08aa96cd463_0", 0, 0]]}
{"name": "model", "layers": [{"class_name": "InputLayer", "config": {"batch_input_shape": [null, 10], "dtype": "float32", "sparse": false, "ragged": false, "name": "input_0"}, "name": "input_0", "inbound_nodes": []}, {"class_name": "Dense", "config": {"name": "Densebe2612bdfe58306ea65bbac462c5ecf7c1df641d430b05e5f6720631359a5532b5a9e4b7ec576fdf07c3f51119d3c98d93860ea343fad32c936cb6cce92ce715_0", "trainable": false, "dtype": "float32", "units": 3, "activation": "relu", "use_bias": true, "kernel_initializer": {"class_name": "GlorotUniform", "config": {"seed": null}}, "bias_initializer": {"class_name": "Zeros", "config": {}}, "kernel_regularizer": null, "bias_regularizer": null, "activity_regularizer": null, "kernel_constraint": null, "bias_constraint": null}, "name": "Densebe2612bdfe58306ea65bbac462c5ecf7c1df641d430b05e5f6720631359a5532b5a9e4b7ec576fdf07c3f51119d3c98d93860ea343fad32c936cb6cce92ce715_0", "inbound_nodes": [[["input_0", 0, 0, {}]]]}, {"class_name": "Dense", "config": {"name": "Densedcd9dd642a9bac8b262b85db8bf6b5caccbe880000991e5d1fcf1451336cbff6e6c1e3c8590fca6be9026c41ea15ae9281ec2342cafe9d7241cae57a4acad123_0", "trainable": false, "dtype": "float32", "units": 2, "activation": "relu", "use_bias": true, "kernel_initializer": {"class_name": "GlorotUniform", "config": {"seed": null}}, "bias_initializer": {"class_name": "Zeros", "config": {}}, "kernel_regularizer": null, "bias_regularizer": null, "activity_regularizer": null, "kernel_constraint": null, "bias_constraint": null}, "name": "Densedcd9dd642a9bac8b262b85db8bf6b5caccbe880000991e5d1fcf1451336cbff6e6c1e3c8590fca6be9026c41ea15ae9281ec2342cafe9d7241cae57a4acad123_0", "inbound_nodes": [[["Densebe2612bdfe58306ea65bbac462c5ecf7c1df641d430b05e5f6720631359a5532b5a9e4b7ec576fdf07c3f51119d3c98d93860ea343fad32c936cb6cce92ce715_0", 0, 0, {}]]]}, {"class_name": "Dense", "config": {"name": "Densed1c23488377e68a77903ff8ab2a25f83916cd96b534d04bee6bf92063ad03196c3e8b2df49a7ccb9bfff1b8744dcc002d1f477e9922bb7fb3c2db27f88b2c7a3_0", "trainable": false, "dtype": "float32", "units": 3, "activation": "relu", "use_bias": true, "kernel_initializer": {"class_name": "GlorotUniform", "config": {"seed": null}}, "bias_initializer": {"class_name": "Zeros", "config": {}}, "kernel_regularizer": null, "bias_regularizer": null, "activity_regularizer": null, "kernel_constraint": null, "bias_constraint": null}, "name": "Densed1c23488377e68a77903ff8ab2a25f83916cd96b534d04bee6bf92063ad03196c3e8b2df49a7ccb9bfff1b8744dcc002d1f477e9922bb7fb3c2db27f88b2c7a3_0", "inbound_nodes": [[["Densedcd9dd642a9bac8b262b85db8bf6b5caccbe880000991e5d1fcf1451336cbff6e6c1e3c8590fca6be9026c41ea15ae9281ec2342cafe9d7241cae57a4acad123_0", 0, 0, {}]]]}, {"class_name": "Dense", "config": {"name": "Densed67d4a1c9728908d6961f333424d73da267c8bab03fd9b58fca2e5b4577c977a0bea99a298563d8b9b7984f6a9a3d6a12b9704490fc3db334165f582a468180b_0", "trainable": true, "dtype": "float32", "units": 3, "activation": "relu", "use_bias": true, "kernel_initializer": {"class_name": "GlorotUniform", "config": {"seed": null}}, "bias_initializer": {"class_name": "Zeros", "config": {}}, "kernel_regularizer": null, "bias_regularizer": null, "activity_regularizer": null, "kernel_constraint": null, "bias_constraint": null}, "name": "Densed67d4a1c9728908d6961f333424d73da267c8bab03fd9b58fca2e5b4577c977a0bea99a298563d8b9b7984f6a9a3d6a12b9704490fc3db334165f582a468180b_0", "inbound_nodes": [[["Densed1c23488377e68a77903ff8ab2a25f83916cd96b534d04bee6bf92063ad03196c3e8b2df49a7ccb9bfff1b8744dcc002d1f477e9922bb7fb3c2db27f88b2c7a3_0", 0, 0, {}]]]}, {"class_name": "Dense", "config": {"name": "Denseebccda73360ec959d740a3b15545581fe8be41e38538632240f8da7b73df00b98eeb710a98580e2a8e5755f4d550b7f2fb9a742f5af4ed4e590ab3c16f9b0a8f_0", "trainable": true, "dtype": "float32", "units": 4, "activation": "relu", "use_bias": true, "kernel_initializer": {"class_name": "GlorotUniform", "config": {"seed": null}}, "bias_initializer": {"class_name": "Zeros", "config": {}}, "kernel_regularizer": null, "bias_regularizer": null, "activity_regularizer": null, "kernel_constraint": null, "bias_constraint": null}, "name": "Denseebccda73360ec959d740a3b15545581fe8be41e38538632240f8da7b73df00b98eeb710a98580e2a8e5755f4d550b7f2fb9a742f5af4ed4e590ab3c16f9b0a8f_0", "inbound_nodes": [[["Densed67d4a1c9728908d6961f333424d73da267c8bab03fd9b58fca2e5b4577c977a0bea99a298563d8b9b7984f6a9a3d6a12b9704490fc3db334165f582a468180b_0", 0, 0, {}]]]}, {"class_name": "Dense", "config": {"name": "Dense301c187c65b3abc13749d1247c9e3567db9b622ea3f63d9ad0b40a4e035be6517402671eb29eb4abc3c75758d079ce4e3af4ba10cbb7a40d6762b346ce584438_0", "trainable": true, "dtype": "float32", "units": 3, "activation": "relu", "use_bias": true, "kernel_initializer": {"class_name": "GlorotUniform", "config": {"seed": null}}, "bias_initializer": {"class_name": "Zeros", "config": {}}, "kernel_regularizer": null, "bias_regularizer": null, "activity_regularizer": null, "kernel_constraint": null, "bias_constraint": null}, "name": "Dense301c187c65b3abc13749d1247c9e3567db9b622ea3f63d9ad0b40a4e035be6517402671eb29eb4abc3c75758d079ce4e3af4ba10cbb7a40d6762b346ce584438_0", "inbound_nodes": [[["Denseebccda73360ec959d740a3b15545581fe8be41e38538632240f8da7b73df00b98eeb710a98580e2a8e5755f4d550b7f2fb9a742f5af4ed4e590ab3c16f9b0a8f_0", 0, 0, {}]]]}, {"class_name": "Dense", "config": {"name": "Denseb581c8275a5aa6a75e7f309b4d36e34e4dd685d3ad27a215332a789f51b3852c069ea2d4dd662a46126c2ea23d6d1f2d271d405625ff5f820fc1d1a19548d287_0", "trainable": true, "dtype": "float32", "units": 4, "activation": "relu", "use_bias": true, "kernel_initializer": {"class_name": "GlorotUniform", "config": {"seed": null}}, "bias_initializer": {"class_name": "Zeros", "config": {}}, "kernel_regularizer": null, "bias_regularizer": null, "activity_regularizer": null, "kernel_constraint": null, "bias_constraint": null}, "name": "Denseb581c8275a5aa6a75e7f309b4d36e34e4dd685d3ad27a215332a789f51b3852c069ea2d4dd662a46126c2ea23d6d1f2d271d405625ff5f820fc1d1a19548d287_0", "inbound_nodes": [[["Dense301c187c65b3abc13749d1247c9e3567db9b622ea3f63d9ad0b40a4e035be6517402671eb29eb4abc3c75758d079ce4e3af4ba10cbb7a40d6762b346ce584438_0", 0, 0, {}]]]}, {"class_name": "Dense", "config": {"name": "Dense74a5f3b91dd853ccf4029048b8e1180a5781d9c9f73d71ef0ab3ebf241a90e79f35f5acaac69f083eced4bfb6742cf5af97f9bf0d0a23bbc3d1acb6f6a20c824_0", "trainable": true, "dtype": "float32", "units": 1, "activation": "relu", "use_bias": true, "kernel_initializer": {"class_name": "GlorotUniform", "config": {"seed": null}}, "bias_initializer": {"class_name": "Zeros", "config": {}}, "kernel_regularizer": null, "bias_regularizer": null, "activity_regularizer": null, "kernel_constraint": null, "bias_constraint": null}, "name": "Dense74a5f3b91dd853ccf4029048b8e1180a5781d9c9f73d71ef0ab3ebf241a90e79f35f5acaac69f083eced4bfb6742cf5af97f9bf0d0a23bbc3d1acb6f6a20c824_0", "inbound_nodes": [[["Denseb581c8275a5aa6a75e7f309b4d36e34e4dd685d3ad27a215332a789f51b3852c069ea2d4dd662a46126c2ea23d6d1f2d271d405625ff5f820fc1d1a19548d287_0", 0, 0, {}]]]}, {"class_name": "Dense", "config": {"name": "Dense7241a524d4661c5940a6db6eb9444f259f71c1646a65043a6f446b247cf117df2bce1c94a095a20dd25a234418716b0d930035ad9a3a911a97ee4b3608e37fe0_0", "trainable": true, "dtype": "float32", "units": 3, "activation": "relu", "use_bias": true, "kernel_initializer": {"class_name": "GlorotUniform", "config": {"seed": null}}, "bias_initializer": {"class_name": "Zeros", "config": {}}, "kernel_regularizer": null, "bias_regularizer": null, "activity_regularizer": null, "kernel_constraint": null, "bias_constraint": null}, "name": "Dense7241a524d4661c5940a6db6eb9444f259f71c1646a65043a6f446b247cf117df2bce1c94a095a20dd25a234418716b0d930035ad9a3a911a97ee4b3608e37fe0_0", "inbound_nodes": [[["Dense74a5f3b91dd853ccf4029048b8e1180a5781d9c9f73d71ef0ab3ebf241a90e79f35f5acaac69f083eced4bfb6742cf5af97f9bf0d0a23bbc3d1acb6f6a20c824_0", 0, 0, {}]]]}, {"class_name": "Dense", "config": {"name": "Dense964d54c96d714c7817ebd9cdde8e1b207fb4742d740c3089eaaa74ef5ef720e0a6a0116fd0d609cb957da8f6e5fdc265c3e310ef5815ab9cc17e3f9e8b775238_0", "trainable": true, "dtype": "float32", "units": 1, "activation": "linear", "use_bias": true, "kernel_initializer": {"class_name": "GlorotUniform", "config": {"seed": null}}, "bias_initializer": {"class_name": "Zeros", "config": {}}, "kernel_regularizer": null, "bias_regularizer": null, "activity_regularizer": null, "kernel_constraint": null, "bias_constraint": null}, "name": "Dense964d54c96d714c7817ebd9cdde8e1b207fb4742d740c3089eaaa74ef5ef720e0a6a0116fd0d609cb957da8f6e5fdc265c3e310ef5815ab9cc17e3f9e8b775238_0", "inbound_nodes": [[["Dense7241a524d4661c5940a6db6eb9444f259f71c1646a65043a6f446b247cf117df2bce1c94a095a20dd25a234418716b0d930035ad9a3a911a97ee4b3608e37fe0_0", 0, 0, {}]]]}], "input_layers": [["input_0", 0, 0]], "output_layers": [["Dense964d54c96d714c7817ebd9cdde8e1b207fb4742d740c3089eaaa74ef5ef720e0a6a0116fd0d609cb957da8f6e5fdc265c3e310ef5815ab9cc17e3f9e8b775238_0", 0, 0]]}
{"name": "model", "layers": [{"class_name": "InputLayer", "config": {"batch_input_shape": [null, 10], "dtype": "float32", "sparse": false, "ragged": false, "name": "input_0"}, "name": "input_0", "inbound_nodes": []}, {"class_name": "Dense", "config": {"name": "Densee711e6e454d8cb8f03d82c408a16fe55d5d9a05951d8e67425d8bdbdb24af4f60ac300450b76e8d3b95ce3d3005a935edd0819304f2d6f9de66d2c1e22591b88_0", "trainable": false, "dtype": "float32", "units": 2, "activation": "relu", "use_bias": true, "kernel_initializer": {"class_name": "GlorotUniform", "config": {"seed": null}}, "bias_initializer": {"class_name": "Zeros", "config": {}}, "kernel_regularizer": null, "bias_regularizer": null, "activity_regularizer": null, "kernel_constraint": null, "bias_constraint": null}, "name": "Densee711e6e454d8cb8f03d82c408a16fe55d5d9a05951d8e67425d8bdbdb24af4f60ac300450b76e8d3b95ce3d3005a935edd0819304f2d6f9de66d2c1e22591b88_0", "inbound_nodes": [[["input_0", 0, 0, {}]]]}, {"class_name": "Dense", "config": {"name": "Dense01fa538b347039f9de14d06460997240cc37b2c4040dabff0756bd602be908349d4389ede6525a5a805a4ce92289bb1eae8c48053a67ddcf0f8b1d33eeb06202_0", "trainable": false, "dtype": "float32", "units": 4, "activation": "relu", "use_bias": true, "kernel_initializer": {"class_name": "GlorotUniform", "config": {"seed": null}}, "bias_initializer": {"class_name": "Zeros", "config": {}}, "kernel_regularizer": null, "bias_regularizer": null, "activity_regularizer": null, "kernel_constraint": null, "bias_constraint": null}, "name": "Dense01fa538b347039f9de14d06460997240cc37b2c4040dabff0756bd602be908349d4389ede6525a5a805a4ce92289bb1eae8c48053a67ddcf0f8b1d33eeb06202_0", "inbound_nodes": [[["Densee711e6e454d8cb8f03d82c408a16fe55d5d9a05951d8e67425d8bdbdb24af4f60ac300450b76e8d3b95ce3d3005a935edd0819304f2d6f9de66d2c1e22591b88_0", 0, 0, {}]]]}, {"class_name": "Dense", "config": {"name": "Denseeca5320a27a241d26c89156e48cda8b3e5adfb1a979f22b4ff5d8f7660affae2515a19db59e8e51f06857b6f9934d0031eee19a8dd55ff2547c5da70c09f9a52_0", "trainable": false, "dtype": "float32", "units": 1, "activation": "relu", "use_bias": true, "kernel_initializer": {"class_name": "GlorotUniform", "config": {"seed": null}}, "bias_initializer": {"class_name": "Zeros", "config": {}}, "kernel_regularizer": null, "bias_regularizer": null, "activity_regularizer": null, "kernel_constraint": null, "bias_constraint": null}, "name": "Denseeca5320a27a241d26c89156e48cda8b3e5adfb1a979f22b4ff5d8f7660affae2515a19db59e8e51f06857b6f9934d0031eee19a8dd55ff2547c5da70c09f9a52_0", "inbound_nodes": [[["Dense01fa538b347039f9de14d06460997240cc37b2c4040dabff0756bd602be908349d4389ede6525a5a805a4ce92289bb1eae8c48053a67ddcf0f8b1d33eeb06202_0", 0, 0, {}]]]}, {"class_name": "Dense", "config": {"name": "Dense49fbd8367fc781177847683a5725cfb0b45fd77c7c89f221db13bcc1e4eeffa50960883dfd095a7da1dc9306a60aeef6d324fabf8212ec74a645729694dc66f4_0", "trainable": true, "dtype": "float32", "units": 3, "activation": "relu", "use_bias": true, "kernel_initializer": {"class_name": "GlorotUniform", "config": {"seed": null}}, "bias_initializer": {"class_name": "Zeros", "config": {}}, "kernel_regularizer": null, "bias_regularizer": null, "activity_regularizer": null, "kernel_constraint": null, "bias_constraint": null}, "name": "Dense49fbd8367fc781177847683a5725cfb0b45fd77c7c89f221db13bcc1e4eeffa50960883dfd095a7da1dc9306a60aeef6d324fabf8212ec74a645729694dc66f4_0", "inbound_nodes": [[["Denseeca5320a27a241d26c89156e48cda8b3e5adfb1a979f22b4ff5d8f7660affae2515a19db59e8e51f06857b6f9934d0031eee19a8dd55ff2547c5da70c09f9a52_0", 0, 0, {}]]]}, {"class_name": "Dense", "config": {"name": "Dense90a6d2fc5b5c0ce7e076596f84ccc4e841bf72d3497d26e027662244775124b137e00a997ec5b0b9ff0c15cf9e506f32edc57c9d4019250ea5921d07f64d1d37_0", "trainable": true, "dtype": "float32", "units": 3, "activation": "relu", "use_bias": true, "kernel_initializer": {"class_name": "GlorotUniform", "config": {"seed": null}}, "bias_initializer": {"class_name": "Zeros", "config": {}}, "kernel_regularizer": null, "bias_regularizer": null, "activity_regularizer": null, "kernel_constraint": null, "bias_constraint": null}, "name": "Dense90a6d2fc5b5c0ce7e076596f84ccc4e841bf72d3497d26e027662244775124b137e00a997ec5b0b9ff0c15cf9e506f32edc57c9d4019250ea5921d07f64d1d37_0", "inbound_nodes": [[["Dense49fbd8367fc781177847683a5725cfb0b45fd77c7c89f221db13bcc1e4eeffa50960883dfd095a7da1dc9306a60aeef6d324fabf8212ec74a645729694dc66f4_0", 0, 0, {}]]]}, {"class_name": "Dense", "config": {"name": "Densec2bca69e88fae874cffce33ed64ad7411c45801c33ebe9821fae493da73a2523ace6aa2cef8918955ec462d505ba63adab705a3875eff7e225532f1b94a826b7_0", "trainable": true, "dtype": "float32", "units": 3, "activation": "relu", "use_bias": true, "kernel_initializer": {"class_name": "GlorotUniform", "config": {"seed": null}}, "bias_initializer": {"class_name": "Zeros", "config": {}}, "kernel_regularizer": null, "bias_regularizer": null, "activity_regularizer": null, "kernel_constraint": null, "bias_constraint": null}, "name": "Densec2bca69e88fae874cffce33ed64ad7411c45801c33ebe9821fae493da73a2523ace6aa2cef8918955ec462d505ba63adab705a3875eff7e225532f1b94a826b7_0", "inbound_nodes": [[["Dense90a6d2fc5b5c0ce7e076596f84ccc4e841bf72d3497d26e027662244775124b137e00a997ec5b0b9ff0c15cf9e506f32edc57c9d4019250ea5921d07f64d1d37_0", 0, 0, {}]]]}, {"class_name": "Dense", "config": {"name": "Dense4b0c0ebe67b42d8a63db1196779ea03c2b1ae552993b5f9d93376ed188c7395ef19cc629c755ee0849332abe25c50b3a590e920abb4dbfef1bb7f5543cab5a73_0", "trainable": true, "dtype": "float32", "units": 1, "activation": "relu", "use_bias": true, "kernel_initializer": {"class_name": "GlorotUniform", "config": {"seed": null}}, "bias_initializer": {"class_name": "Zeros", "config": {}}, "kernel_regularizer": null, "bias_regularizer": null, "activity_regularizer": null, "kernel_constraint": null, "bias_constraint": null}, "name": "Dense4b0c0ebe67b42d8a63db1196779ea03c2b1ae552993b5f9d93376ed188c7395ef19cc629c755ee0849332abe25c50b3a590e920abb4dbfef1bb7f5543cab5a73_0", "inbound_nodes": [[["Densec2bca69e88fae874cffce33ed64ad7411c45801c33ebe9821fae493da73a2523ace6aa2cef8918955ec462d505ba63adab705a3875eff7e225532f1b94a826b7_0", 0, 0, {}]]]}, {"class_name": "Dense", "config": {"name": "Dense6df7a00b804c11502ad1d2ff96b175bc713663a50ecedcf3405e042f6c61399b2d04af08d3e969382f6f2f58fc1b25559c01e190bf3e6663c9673d8392a39927_0", "trainable": true, "dtype": "float32", "units": 4, "activation": "relu", "use_bias": true, "kernel_initializer": {"class_name": "GlorotUniform", "config": {"seed": null}}, "bias_initializer": {"class_name": "Zeros", "config": {}}, "kernel_regularizer": null, "bias_regularizer": null, "activity_regularizer": null, "kernel_constraint": null, "bias_constraint": null}, "name": "Dense6df7a00b804c11502ad1d2ff96b175bc713663a50ecedcf3405e042f6c61399b2d04af08d3e969382f6f2f58fc1b25559c01e190bf3e6663c9673d8392a39927_0", "inbound_nodes": [[["Dense4b0c0ebe67b42d8a63db1196779ea03c2b1ae552993b5f9d93376ed188c7395ef19cc629c755ee0849332abe25c50b3a590e920abb4dbfef1bb7f5543cab5a73_0", 0, 0, {}]]]}, {"class_name": "Dense", "config": {"name": "Dense8c6caba71c756f85123bdea6feb8abf497982281dba2711a9b48ee082177ba53087e99b7242b559166e0fba69cafd448522673fe40b39a3f5308c2f756d943ba_0", "trainable": true, "dtype": "float32", "units": 4, "activation": "relu", "use_bias": true, "kernel_initializer": {"class_name": "GlorotUniform", "config": {"seed": null}}, "bias_initializer": {"class_name": "Zeros", "config": {}}, "kernel_regularizer": null, "bias_regularizer": null, "activity_regularizer": null, "kernel_constraint": null, "bias_constraint": null}, "name": "Dense8c6caba71c756f85123bdea6feb8abf497982281dba2711a9b48ee082177ba53087e99b7242b559166e0fba69cafd448522673fe40b39a3f5308c2f756d943ba_0", "inbound_nodes": [[["Dense6df7a00b804c11502ad1d2ff96b175bc713663a50ecedcf3405e042f6c61399b2d04af08d3e969382f6f2f58fc1b25559c01e190bf3e6663c9673d8392a39927_0", 0, 0, {}]]]}, {"class_name": "Dense", "config": {"name": "Densee7071ccd1a1364dcd1868abd2214be5c5e823d1f4d4d770cf6d5c07089a56cdc6334395434662c95593bf0b157e4059753b7eaac56801c1b8de5776e2cf83fcb_0", "trainable": true, "dtype": "float32", "units": 1, "activation": "linear", "use_bias": true, "kernel_initializer": {"class_name": "GlorotUniform", "config": {"seed": null}}, "bias_initializer": {"class_name": "Zeros", "config": {}}, "kernel_regularizer": null, "bias_regularizer": null, "activity_regularizer": null, "kernel_constraint": null, "bias_constraint": null}, "name": "Densee7071ccd1a1364dcd1868abd2214be5c5e823d1f4d4d770cf6d5c07089a56cdc6334395434662c95593bf0b157e4059753b7eaac56801c1b8de5776e2cf83fcb_0", "inbound_nodes": [[["Dense8c6caba71c756f85123bdea6feb8abf497982281dba2711a9b48ee082177ba53087e99b7242b559166e0fba69cafd448522673fe40b39a3f5308c2f756d943ba_0", 0, 0, {}]]]}], "input_layers": [["input_0", 0, 0]], "output_layers": [["Densee7071ccd1a1364dcd1868abd2214be5c5e823d1f4d4d770cf6d5c07089a56cdc6334395434662c95593bf0b157e4059753b7eaac56801c1b8de5776e2cf83fcb_0", 0, 0]]}
{"name": "model", "layers": [{"class_name": "InputLayer", "config": {"batch_input_shape": [null, 10], "dtype": "float32", "sparse": false, "ragged": false, "name": "input_0"}, "name": "input_0", "inbound_nodes": []}, {"class_name": "Dense", "config": {"name": "Densebe2612bdfe58306ea65bbac462c5ecf7c1df641d430b05e5f6720631359a5532b5a9e4b7ec576fdf07c3f51119d3c98d93860ea343fad32c936cb6cce92ce715_0", "trainable": false, "dtype": "float32", "units": 3, "activation": "relu", "use_bias": true, "kernel_initializer": {"class_name": "GlorotUniform", "config": {"seed": null}}, "bias_initializer": {"class_name": "Zeros", "config": {}}, "kernel_regularizer": null, "bias_regularizer": null, "activity_regularizer": null, "kernel_constraint": null, "bias_constraint": null}, "name": "Densebe2612bdfe58306ea65bbac462c5ecf7c1df641d430b05e5f6720631359a5532b5a9e4b7ec576fdf07c3f51119d3c98d93860ea343fad32c936cb6cce92ce715_0", "inbound_nodes": [[["input_0", 0, 0, {}]]]}, {"class_name": "Dense", "config": {"name": "Densedcd9dd642a9bac8b262b85db8bf6b5caccbe880000991e5d1fcf1451336cbff6e6c1e3c8590fca6be9026c41ea15ae9281ec2342cafe9d7241cae57a4acad123_0", "trainable": false, "dtype": "float32", "units": 2, "activation": "relu", "use_bias": true, "kernel_initializer": {"class_name": "GlorotUniform", "config": {"seed": null}}, "bias_initializer": {"class_name": "Zeros", "config": {}}, "kernel_regularizer": null, "bias_regularizer": null, "activity_regularizer": null, "kernel_constraint": null, "bias_constraint": null}, "name": "Densedcd9dd642a9bac8b262b85db8bf6b5caccbe880000991e5d1fcf1451336cbff6e6c1e3c8590fca6be9026c41ea15ae9281ec2342cafe9d7241cae57a4acad123_0", "inbound_nodes": [[["Densebe2612bdfe58306ea65bbac462c5ecf7c1df641d430b05e5f6720631359a5532b5a9e4b7ec576fdf07c3f51119d3c98d93860ea343fad32c936cb6cce92ce715_0", 0, 0, {}]]]}, {"class_name": "Dense", "config": {"name": "Dense76bdd6835f5c79f8676c3c873fc2f8bd635f0f4385753617abb13b71f0c1f64efaca423694d284cbba6c0954c0df35bc4aec54ad7bf99e1788b1d0e03ce21ad2_0", "trainable": false, "dtype": "float32", "units": 1, "activation": "relu", "use_bias": true, "kernel_initializer": {"class_name": "GlorotUniform", "config": {"seed": null}}, "bias_initializer": {"class_name": "Zeros", "config": {}}, "kernel_regularizer": null, "bias_regularizer": null, "activity_regularizer": null, "kernel_constraint": null, "bias_constraint": null}, "name": "Dense76bdd6835f5c79f8676c3c873fc2f8bd635f0f4385753617abb13b71f0c1f64efaca423694d284cbba6c0954c0df35bc4aec54ad7bf99e1788b1d0e03ce21ad2_0", "inbound_nodes": [[["Densedcd9dd642a9bac8b262b85db8bf6b5caccbe880000991e5d1fcf1451336cbff6e6c1e3c8590fca6be9026c41ea15ae9281ec2342cafe9d7241cae57a4acad123_0", 0, 0, {}]]]}, {"class_name": "Dense", "config": {"name": "Denseeaa814875e4763c8643d0ce5fa3445da3e88c8c8ab692c118e38c08a539a37542ff125b3c3a3189810e13c3ec77dca13768ab393d7dbeae18dd12e79678738de_0", "trainable": false, "dtype": "float32", "units": 4, "activation": "relu", "use_bias": true, "kernel_initializer": {"class_name": "GlorotUniform", "config": {"seed": null}}, "bias_initializer": {"class_name": "Zeros", "config": {}}, "kernel_regularizer": null, "bias_regularizer": null, "activity_regularizer": null, "kernel_constraint": null, "bias_constraint": null}, "name": "Denseeaa814875e4763c8643d0ce5fa3445da3e88c8c8ab692c118e38c08a539a37542ff125b3c3a3189810e13c3ec77dca13768ab393d7dbeae18dd12e79678738de_0", "inbound_nodes": [[["Dense76bdd6835f5c79f8676c3c873fc2f8bd635f0f4385753617abb13b71f0c1f64efaca423694d284cbba6c0954c0df35bc4aec54ad7bf99e1788b1d0e03ce21ad2_0", 0, 0, {}]]]}, {"class_name": "Dense", "config": {"name": "Dense9e18451998bd033aea02d84a4f2d8aff2ab8dcd5461fcf40d551049555201175fb8b4f9dd5457b0aa7f88a2597f8a249f0b3052dfb6860220dc95ffe684cdee9_0", "trainable": true, "dtype": "float32", "units": 2, "activation": "relu", "use_bias": true, "kernel_initializer": {"class_name": "GlorotUniform", "config": {"seed": null}}, "bias_initializer": {"class_name": "Zeros", "config": {}}, "kernel_regularizer": null, "bias_regularizer": null, "activity_regularizer": null, "kernel_constraint": null, "bias_constraint": null}, "name": "Dense9e18451998bd033aea02d84a4f2d8aff2ab8dcd5461fcf40d551049555201175fb8b4f9dd5457b0aa7f88a2597f8a249f0b3052dfb6860220dc95ffe684cdee9_0", "inbound_nodes": [[["Denseeaa814875e4763c8643d0ce5fa3445da3e88c8c8ab692c118e38c08a539a37542ff125b3c3a3189810e13c3ec77dca13768ab393d7dbeae18dd12e79678738de_0", 0, 0, {}]]]}, {"class_name": "Dense", "config": {"name": "Densef17d62b1726585a404726daa76d5ed6848d8d8aa5f56499c7da9ab7af35572c986563a49bee279c130e2e446092312c8b8f67e97242819dc66c6939f1e556d75_0", "trainable": true, "dtype": "float32", "units": 2, "activation": "relu", "use_bias": true, "kernel_initializer": {"class_name": "GlorotUniform", "config": {"seed": null}}, "bias_initializer": {"class_name": "Zeros", "config": {}}, "kernel_regularizer": null, "bias_regularizer": null, "activity_regularizer": null, "kernel_constraint": null, "bias_constraint": null}, "name": "Densef17d62b1726585a404726daa76d5ed6848d8d8aa5f56499c7da9ab7af35572c986563a49bee279c130e2e446092312c8b8f67e97242819dc66c6939f1e556d75_0", "inbound_nodes": [[["Dense9e18451998bd033aea02d84a4f2d8aff2ab8dcd5461fcf40d551049555201175fb8b4f9dd5457b0aa7f88a2597f8a249f0b3052dfb6860220dc95ffe684cdee9_0", 0, 0, {}]]]}, {"class_name": "Dense", "config": {"name": "Dense933b21b38f887b6eb89a62bc5baab54aff148524a4e49dbf51bddebcc8147ea3bcab3db68b1ef41895f1754631cf257cd0a7658a4b77eb31d6e4e3eb3f8747ff_0", "trainable": true, "dtype": "float32", "units": 2, "activation": "relu", "use_bias": true, "kernel_initializer": {"class_name": "GlorotUniform", "config": {"seed": null}}, "bias_initializer": {"class_name": "Zeros", "config": {}}, "kernel_regularizer": null, "bias_regularizer": null, "activity_regularizer": null, "kernel_constraint": null, "bias_constraint": null}, "name": "Dense933b21b38f887b6eb89a62bc5baab54aff148524a4e49dbf51bddebcc8147ea3bcab3db68b1ef41895f1754631cf257cd0a7658a4b77eb31d6e4e3eb3f8747ff_0", "inbound_nodes": [[["Densef17d62b1726585a404726daa76d5ed6848d8d8aa5f56499c7da9ab7af35572c986563a49bee279c130e2e446092312c8b8f67e97242819dc66c6939f1e556d75_0", 0, 0, {}]]]}, {"class_name": "Dense", "config": {"name": "Dense8b3293783d481ef1f2e557a38c4952d9db6a24d39abc48c5478c6282c7876b48d5dc588321a659bab6a0c57622c958c76f71c1ad93cb10252b3d545d19bdcddf_0", "trainable": true, "dtype": "float32", "units": 3, "activation": "relu", "use_bias": true, "kernel_initializer": {"class_name": "GlorotUniform", "config": {"seed": null}}, "bias_initializer": {"class_name": "Zeros", "config": {}}, "kernel_regularizer": null, "bias_regularizer": null, "activity_regularizer": null, "kernel_constraint": null, "bias_constraint": null}, "name": "Dense8b3293783d481ef1f2e557a38c4952d9db6a24d39abc48c5478c6282c7876b48d5dc588321a659bab6a0c57622c958c76f71c1ad93cb10252b3d545d19bdcddf_0", "inbound_nodes": [[["Dense933b21b38f887b6eb89a62bc5baab54aff148524a4e49dbf51bddebcc8147ea3bcab3db68b1ef41895f1754631cf257cd0a7658a4b77eb31d6e4e3eb3f8747ff_0", 0, 0, {}]]]}, {"class_name": "Dense", "config": {"name": "Densec4b6547bf7ed4baa567fc07ce815535d5776a2aec7218cae1824108f5f079e15e2f3e310e96b935f10c8c2b43b137c3f8bc1368418653708fbf3cd701ec192ce_0", "trainable": true, "dtype": "float32", "units": 2, "activation": "relu", "use_bias": true, "kernel_initializer": {"class_name": "GlorotUniform", "config": {"seed": null}}, "bias_initializer": {"class_name": "Zeros", "config": {}}, "kernel_regularizer": null, "bias_regularizer": null, "activity_regularizer": null, "kernel_constraint": null, "bias_constraint": null}, "name": "Densec4b6547bf7ed4baa567fc07ce815535d5776a2aec7218cae1824108f5f079e15e2f3e310e96b935f10c8c2b43b137c3f8bc1368418653708fbf3cd701ec192ce_0", "inbound_nodes": [[["Dense8b3293783d481ef1f2e557a38c4952d9db6a24d39abc48c5478c6282c7876b48d5dc588321a659bab6a0c57622c958c76f71c1ad93cb10252b3d545d19bdcddf_0", 0, 0, {}]]]}, {"class_name": "Dense", "config": {"name": "Dense30ec604eb0260236a126afbc733a50a8917732f1c61aaf6c24e15c29f6685c19e36f0ab20c24faeb56715ed2fa74cd5873d72d6e1a5d5fbf1eb8ee350bb1fa2f_0", "trainable": true, "dtype": "float32", "units": 1, "activation": "linear", "use_bias": true, "kernel_initializer": {"class_name": "GlorotUniform", "config": {"seed": null}}, "bias_initializer": {"class_name": "Zeros", "config": {}}, "kernel_regularizer": null, "bias_regularizer": null, "activity_regularizer": null, "kernel_constraint": null, "bias_constraint": null}, "name": "Dense30ec604eb0260236a126afbc733a50a8917732f1c61aaf6c24e15c29f6685c19e36f0ab20c24faeb56715ed2fa74cd5873d72d6e1a5d5fbf1eb8ee350bb1fa2f_0", "inbound_nodes": [[["Densec4b6547bf7ed4baa567fc07ce815535d5776a2aec7218cae1824108f5f079e15e2f3e310e96b935f10c8c2b43b137c3f8bc1368418653708fbf3cd701ec192ce_0", 0, 0, {}]]]}], "input_layers": [["input_0", 0, 0]], "output_layers": [["Dense30ec604eb0260236a126afbc733a50a8917732f1c61aaf6c24e15c29f6685c19e36f0ab20c24faeb56715ed2fa74cd5873d72d6e1a5d5fbf1eb8ee350bb1fa2f_0", 0, 0]]}
{"name": "model", "layers": [{"class_name": "InputLayer", "config": {"batch_input_shape": [null, 10], "dtype": "float32", "sparse": false, "ragged": false, "name": "input_0"}, "name": "input_0", "inbound_nodes": []}, {"class_name": "Dense", "config": {"name": "Dense928014dbac284f38c5f40e4e7df4459bb3125b45fb54939dd7c373fdd1a56c4987f337960a8c53b364135e0d08ff3dc3e6097186fed129c80d1abd32093ea7c1_0", "trainable": false, "dtype": "float32", "units": 4, "activation": "relu", "use_bias": true, "kernel_initializer": {"class_name": "GlorotUniform", "config": {"seed": null}}, "bias_initializer": {"class_name": "Zeros", "config": {}}, "kernel_regularizer": null, "bias_regularizer": null, "activity_regularizer": null, "kernel_constraint": null, "bias_constraint": null}, "name": "Dense928014dbac284f38c5f40e4e7df4459bb3125b45fb54939dd7c373fdd1a56c4987f337960a8c53b364135e0d08ff3dc3e6097186fed129c80d1abd32093ea7c1_0", "inbound_nodes": [[["input_0", 0, 0, {}]]]}, {"class_name": "Dense", "config": {"name": "Dense8d8ad08ba57c5cca9e2b771cb99d1b7bf10bcb3b54027fd115ddb816884b0fcaeaa8c3fa5acd458833f70340a2120fe2b5ecb5d107b6b1abe122b10bd5e9130a_0", "trainable": false, "dtype": "float32", "units": 2, "activation": "relu", "use_bias": true, "kernel_initializer": {"class_name": "GlorotUniform", "config": {"seed": null}}, "bias_initializer": {"class_name": "Zeros", "config": {}}, "kernel_regularizer": null, "bias_regularizer": null, "activity_regularizer": null, "kernel_constraint": null, "bias_constraint": null}, "name": "Dense8d8ad08ba57c5cca9e2b771cb99d1b7bf10bcb3b54027fd115ddb816884b0fcaeaa8c3fa5acd458833f70340a2120fe2b5ecb5d107b6b1abe122b10bd5e9130a_0", "inbound_nodes": [[["Dense928014dbac284f38c5f40e4e7df4459bb3125b45fb54939dd7c373fdd1a56c4987f337960a8c53b364135e0d08ff3dc3e6097186fed129c80d1abd32093ea7c1_0", 0, 0, {}]]]}, {"class_name": "Dense", "config": {"name": "Dense53037a77574feeec369920e35177c7e21defc7ff414eafe743c05d337dbd3d9e605aa0363ea6b758ef3c0a19c765a910156c78e606869575a17fb0e06c31cdda_0", "trainable": false, "dtype": "float32", "units": 1, "activation": "relu", "use_bias": true, "kernel_initializer": {"class_name": "GlorotUniform", "config": {"seed": null}}, "bias_initializer": {"class_name": "Zeros", "config": {}}, "kernel_regularizer": null, "bias_regularizer": null, "activity_regularizer": null, "kernel_constraint": null, "bias_constraint": null}, "name": "Dense53037a77574feeec369920e35177c7e21defc7ff414eafe743c05d337dbd3d9e605aa0363ea6b758ef3c0a19c765a910156c78e606869575a17fb0e06c31cdda_0", "inbound_nodes": [[["Dense8d8ad08ba57c5cca9e2b771cb99d1b7bf10bcb3b54027fd115ddb816884b0fcaeaa8c3fa5acd458833f70340a2120fe2b5ecb5d107b6b1abe122b10bd5e9130a_0", 0, 0, {}]]]}, {"class_name": "Dense", "config": {"name": "Densedb039e413e9c933605aa2a2771f84d613a2e06e65ca93634f354452999c8bae1eedd03d9454152521587f755a29b4cb4e1a27740a4d7e0ff3bfce7aaebd0af42_0", "trainable": true, "dtype": "float32", "units": 2, "activation": "relu", "use_bias": true, "kernel_initializer": {"class_name": "GlorotUniform", "config": {"seed": null}}, "bias_initializer": {"class_name": "Zeros", "config": {}}, "kernel_regularizer": null, "bias_regularizer": null, "activity_regularizer": null, "kernel_constraint": null, "bias_constraint": null}, "name": "Densedb039e413e9c933605aa2a2771f84d613a2e06e65ca93634f354452999c8bae1eedd03d9454152521587f755a29b4cb4e1a27740a4d7e0ff3bfce7aaebd0af42_0", "inbound_nodes": [[["Dense53037a77574feeec369920e35177c7e21defc7ff414eafe743c05d337dbd3d9e605aa0363ea6b758ef3c0a19c765a910156c78e606869575a17fb0e06c31cdda_0", 0, 0, {}]]]}, {"class_name": "Dense", "config": {"name": "Densecbc59cb0e85f6c15a61432726f92e995ed46eb0f64af619909c233c38e6b2672d371eb1ca782a071275af4a55e88ce7f8f4daf7616cf3eb839e5a5ef43d0c621_0", "trainable": true, "dtype": "float32", "units": 3, "activation": "relu", "use_bias": true, "kernel_initializer": {"class_name": "GlorotUniform", "config": {"seed": null}}, "bias_initializer": {"class_name": "Zeros", "config": {}}, "kernel_regularizer": null, "bias_regularizer": null, "activity_regularizer": null, "kernel_constraint": null, "bias_constraint": null}, "name": "Densecbc59cb0e85f6c15a61432726f92e995ed46eb0f64af619909c233c38e6b2672d371eb1ca782a071275af4a55e88ce7f8f4daf7616cf3eb839e5a5ef43d0c621_0", "inbound_nodes": [[["Densedb039e413e9c933605aa2a2771f84d613a2e06e65ca93634f354452999c8bae1eedd03d9454152521587f755a29b4cb4e1a27740a4d7e0ff3bfce7aaebd0af42_0", 0, 0, {}]]]}, {"class_name": "Dense", "config": {"name": "Densee33023ed7deb8376108af3b19d94b1fc7b76debec530fdf35a71f6cc66e209170bb76997aeb03af90502f916e61fdf324dab111b208f3997460458ee5890a0b7_0", "trainable": true, "dtype": "float32", "units": 1, "activation": "relu", "use_bias": true, "kernel_initializer": {"class_name": "GlorotUniform", "config": {"seed": null}}, "bias_initializer": {"class_name": "Zeros", "config": {}}, "kernel_regularizer": null, "bias_regularizer": null, "activity_regularizer": null, "kernel_constraint": null, "bias_constraint": null}, "name": "Densee33023ed7deb8376108af3b19d94b1fc7b76debec530fdf35a71f6cc66e209170bb76997aeb03af90502f916e61fdf324dab111b208f3997460458ee5890a0b7_0", "inbound_nodes": [[["Densecbc59cb0e85f6c15a61432726f92e995ed46eb0f64af619909c233c38e6b2672d371eb1ca782a071275af4a55e88ce7f8f4daf7616cf3eb839e5a5ef43d0c621_0", 0, 0, {}]]]}, {"class_name": "Dense", "config": {"name": "Dense1d3f4373d7f8362932fb2d9e7ecd9b54f6ec997e6c1edf181693a4e19bd8597cc69c3c3958b79ec74f6eaad8f1e4e3b411eb5e2659432fa32b80d2df42c5ef2c_0", "trainable": true, "dtype": "float32", "units": 1, "activation": "relu", "use_bias": true, "kernel_initializer": {"class_name": "GlorotUniform", "config": {"seed": null}}, "bias_initializer": {"class_name": "Zeros", "config": {}}, "kernel_regularizer": null, "bias_regularizer": null, "activity_regularizer": null, "kernel_constraint": null, "bias_constraint": null}, "name": "Dense1d3f4373d7f8362932fb2d9e7ecd9b54f6ec997e6c1edf181693a4e19bd8597cc69c3c3958b79ec74f6eaad8f1e4e3b411eb5e2659432fa32b80d2df42c5ef2c_0", "inbound_nodes": [[["Densee33023ed7deb8376108af3b19d94b1fc7b76debec530fdf35a71f6cc66e209170bb76997aeb03af90502f916e61fdf324dab111b208f3997460458ee5890a0b7_0", 0, 0, {}]]]}, {"class_name": "Dense", "config": {"name": "Densee43853355f74e892e81d4fe208a1095a8b837d104b7507b27b0c7285853c63169769ac1ed986e7aad8b7fc5be58f1f3d780f1a6356c897e98e450262c9d8d0bd_0", "trainable": true, "dtype": "float32", "units": 2, "activation": "relu", "use_bias": true, "kernel_initializer": {"class_name": "GlorotUniform", "config": {"seed": null}}, "bias_initializer": {"class_name": "Zeros", "config": {}}, "kernel_regularizer": null, "bias_regularizer": null, "activity_regularizer": null, "kernel_constraint": null, "bias_constraint": null}, "name": "Densee43853355f74e892e81d4fe208a1095a8b837d104b7507b27b0c7285853c63169769ac1ed986e7aad8b7fc5be58f1f3d780f1a6356c897e98e450262c9d8d0bd_0", "inbound_nodes": [[["Dense1d3f4373d7f8362932fb2d9e7ecd9b54f6ec997e6c1edf181693a4e19bd8597cc69c3c3958b79ec74f6eaad8f1e4e3b411eb5e2659432fa32b80d2df42c5ef2c_0", 0, 0, {}]]]}, {"class_name": "Dense", "config": {"name": "Dense61d3bad15d180eaaafb301ee869d2b31804df149cab86abc715206ece3b0dbed5e2470858830dd8ff25b942ba6d323f892a20c3991f454c51febf394c980ef65_0", "trainable": true, "dtype": "float32", "units": 1, "activation": "linear", "use_bias": true, "kernel_initializer": {"class_name": "GlorotUniform", "config": {"seed": null}}, "bias_initializer": {"class_name": "Zeros", "config": {}}, "kernel_regularizer": null, "bias_regularizer": null, "activity_regularizer": null, "kernel_constraint": null, "bias_constraint": null}, "name": "Dense61d3bad15d180eaaafb301ee869d2b31804df149cab86abc715206ece3b0dbed5e2470858830dd8ff25b942ba6d323f892a20c3991f454c51febf394c980ef65_0", "inbound_nodes": [[["Densee43853355f74e892e81d4fe208a1095a8b837d104b7507b27b0c7285853c63169769ac1ed986e7aad8b7fc5be58f1f3d780f1a6356c897e98e450262c9d8d0bd_0", 0, 0, {}]]]}], "input_layers": [["input_0", 0, 0]], "output_layers": [["Dense61d3bad15d180eaaafb301ee869d2b31804df149cab86abc715206ece3b0dbed5e2470858830dd8ff25b942ba6d323f892a20c3991f454c51febf394c980ef65_0", 0, 0]]}
{"name": "model", "layers": [{"class_name": "InputLayer", "config": {"batch_input_shape": [null, 10], "dtype": "float32", "sparse": false, "ragged": false, "name": "input_0"}, "name": "input_0", "inbound_nodes": []}, {"class_name": "Dense", "config": {"name": "Densee711e6e454d8cb8f03d82c408a16fe55d5d9a05951d8e67425d8bdbdb24af4f60ac300450b76e8d3b95ce3d3005a935edd0819304f2d6f9de66d2c1e22591b88_0", "trainable": false, "dtype": "float32", "units": 2, "activation": "relu", "use_bias": true, "kernel_initializer": {"class_name": "GlorotUniform", "config": {"seed": null}}, "bias_initializer": {"class_name": "Zeros", "config": {}}, "kernel_regularizer": null, "bias_regularizer": null, "activity_regularizer": null, "kernel_constraint": null, "bias_constraint": null}, "name": "Densee711e6e454d8cb8f03d82c408a16fe55d5d9a05951d8e67425d8bdbdb24af4f60ac300450b76e8d3b95ce3d3005a935edd0819304f2d6f9de66d2c1e22591b88_0", "inbound_nodes": [[["input_0", 0, 0, {}]]]}, {"class_name": "Dense", "config": {"name": "Dense01fa538b347039f9de14d06460997240cc37b2c4040dabff0756bd602be908349d4389ede6525a5a805a4ce92289bb1eae8c48053a67ddcf0f8b1d33eeb06202_0", "trainable": false, "dtype": "float32", "units": 4, "activation": "relu", "use_bias": true, "kernel_initializer": {"class_name": "GlorotUniform", "config": {"seed": null}}, "bias_initializer": {"class_name": "Zeros", "config": {}}, "kernel_regularizer": null, "bias_regularizer": null, "activity_regularizer": null, "kernel_constraint": null, "bias_constraint": null}, "name": "Dense01fa538b347039f9de14d06460997240cc37b2c4040dabff0756bd602be908349d4389ede6525a5a805a4ce92289bb1eae8c48053a67ddcf0f8b1d33eeb06202_0", "inbound_nodes": [[["Densee711e6e454d8cb8f03d82c408a16fe55d5d9a05951d8e67425d8bdbdb24af4f60ac300450b76e8d3b95ce3d3005a935edd0819304f2d6f9de66d2c1e22591b88_0", 0, 0, {}]]]}, {"class_name": "Dense", "config": {"name": "Dense8402cfeb942392e76fff2d3cdffa7ec11ad19cdbc96f517fa1d69906f08c013783323785ddb239a4f64c26aec99f7d7a5616f4aa1508d4d9db0f295cc2f6fe39_0", "trainable": false, "dtype": "float32", "units": 3, "activation": "relu", "use_bias": true, "kernel_initializer": {"class_name": "GlorotUniform", "config": {"seed": null}}, "bias_initializer": {"class_name": "Zeros", "config": {}}, "kernel_regularizer": null, "bias_regularizer": null, "activity_regularizer": null, "kernel_constraint": null, "bias_constraint": null}, "name": "Dense8402cfeb942392e76fff2d3cdffa7ec11ad19cdbc96f517fa1d69906f08c013783323785ddb239a4f64c26aec99f7d7a5616f4aa1508d4d9db0f295cc2f6fe39_0", "inbound_nodes": [[["Dense01fa538b347039f9de14d06460997240cc37b2c4040dabff0756bd602be908349d4389ede6525a5a805a4ce92289bb1eae8c48053a67ddcf0f8b1d33eeb06202_0", 0, 0, {}]]]}, {"class_name": "Dense", "config": {"name": "Denseeaa40b9ef002dbf6ee5035e2107df1d58f0a89888eae7cec94f896b24c6ce2e0b3208f42bc0bf40ff8261a2dd2a562ac5c3b49ab0f5bd4052510558fc2aadc98_0", "trainable": false, "dtype": "float32", "units": 1, "activation": "relu", "use_bias": true, "kernel_initializer": {"class_name": "GlorotUniform", "config": {"seed": null}}, "bias_initializer": {"class_name": "Zeros", "config": {}}, "kernel_regularizer": null, "bias_regularizer": null, "activity_regularizer": null, "kernel_constraint": null, "bias_constraint": null}, "name": "Denseeaa40b9ef002dbf6ee5035e2107df1d58f0a89888eae7cec94f896b24c6ce2e0b3208f42bc0bf40ff8261a2dd2a562ac5c3b49ab0f5bd4052510558fc2aadc98_0", "inbound_nodes": [[["Dense8402cfeb942392e76fff2d3cdffa7ec11ad19cdbc96f517fa1d69906f08c013783323785ddb239a4f64c26aec99f7d7a5616f4aa1508d4d9db0f295cc2f6fe39_0", 0, 0, {}]]]}, {"class_name": "Dense", "config": {"name": "Dense93edfb8c60f66643987c8017e1032fad67d9342fd83c3a5eae7bb72e7cce79858c660f112f54f439dd004bc5ad1a651cabdff8f95f55c579898082561e660d18_0", "trainable": false, "dtype": "float32", "units": 4, "activation": "relu", "use_bias": true, "kernel_initializer": {"class_name": "GlorotUniform", "config": {"seed": null}}, "bias_initializer": {"class_name": "Zeros", "config": {}}, "kernel_regularizer": null, "bias_regularizer": null, "activity_regularizer": null, "kernel_constraint": null, "bias_constraint": null}, "name": "Dense93edfb8c60f66643987c8017e1032fad67d9342fd83c3a5eae7bb72e7cce79858c660f112f54f439dd004bc5ad1a651cabdff8f95f55c579898082561e660d18_0", "inbound_nodes": [[["Denseeaa40b9ef002dbf6ee5035e2107df1d58f0a89888eae7cec94f896b24c6ce2e0b3208f42bc0bf40ff8261a2dd2a562ac5c3b49ab0f5bd4052510558fc2aadc98_0", 0, 0, {}]]]}, {"class_name": "Dense", "config": {"name": "Dense12b0f31e284da5374c650040a6e3a8d35da6c9b5af9fb4364c508af5f66c4e857237e5b67ab3e1232cb9649f933a676a1bf1795ef97cb0f2f41da74640441903_0", "trainable": false, "dtype": "float32", "units": 3, "activation": "relu", "use_bias": true, "kernel_initializer": {"class_name": "GlorotUniform", "config": {"seed": null}}, "bias_initializer": {"class_name": "Zeros", "config": {}}, "kernel_regularizer": null, "bias_regularizer": null, "activity_regularizer": null, "kernel_constraint": null, "bias_constraint": null}, "name": "Dense12b0f31e284da5374c650040a6e3a8d35da6c9b5af9fb4364c508af5f66c4e857237e5b67ab3e1232cb9649f933a676a1bf1795ef97cb0f2f41da74640441903_0", "inbound_nodes": [[["Dense93edfb8c60f66643987c8017e1032fad67d9342fd83c3a5eae7bb72e7cce79858c660f112f54f439dd004bc5ad1a651cabdff8f95f55c579898082561e660d18_0", 0, 0, {}]]]}, {"class_name": "Dense", "config": {"name": "Densed00147059c6bd67cc4d402bc70474407eccc09d93048f5bc4541c4196a39a6bb56051e939377994774a2c867a0b845d9ce426ae25b2df836c358403bd671c851_0", "trainable": false, "dtype": "float32", "units": 1, "activation": "relu", "use_bias": true, "kernel_initializer": {"class_name": "GlorotUniform", "config": {"seed": null}}, "bias_initializer": {"class_name": "Zeros", "config": {}}, "kernel_regularizer": null, "bias_regularizer": null, "activity_regularizer": null, "kernel_constraint": null, "bias_constraint": null}, "name": "Densed00147059c6bd67cc4d402bc70474407eccc09d93048f5bc4541c4196a39a6bb56051e939377994774a2c867a0b845d9ce426ae25b2df836c358403bd671c851_0", "inbound_nodes": [[["Dense12b0f31e284da5374c650040a6e3a8d35da6c9b5af9fb4364c508af5f66c4e857237e5b67ab3e1232cb9649f933a676a1bf1795ef97cb0f2f41da74640441903_0", 0, 0, {}]]]}, {"class_name": "Dense", "config": {"name": "Dense19a1445890297f68be85f09070fe25b572d938dfa206ce892bdf6cb660af6731a674a5bad35c5a65e0954684ab9d0caa2407c3c261ebdcddbee17c6b29437c8e_0", "trainable": false, "dtype": "float32", "units": 1, "activation": "linear", "use_bias": true, "kernel_initializer": {"class_name": "GlorotUniform", "config": {"seed": null}}, "bias_initializer": {"class_name": "Zeros", "config": {}}, "kernel_regularizer": null, "bias_regularizer": null, "activity_regularizer": null, "kernel_constraint": null, "bias_constraint": null}, "name": "Dense19a1445890297f68be85f09070fe25b572d938dfa206ce892bdf6cb660af6731a674a5bad35c5a65e0954684ab9d0caa2407c3c261ebdcddbee17c6b29437c8e_0", "inbound_nodes": [[["Densed00147059c6bd67cc4d402bc70474407eccc09d93048f5bc4541c4196a39a6bb56051e939377994774a2c867a0b845d9ce426ae25b2df836c358403bd671c851_0", 0, 0, {}]]]}], "input_layers": [["input_0", 0, 0]], "output_layers": [["Dense19a1445890297f68be85f09070fe25b572d938dfa206ce892bdf6cb660af6731a674a5bad35c5a65e0954684ab9d0caa2407c3c261ebdcddbee17c6b29437c8e_0", 0, 0]]}
{"name": "model", "layers": [{"class_name": "InputLayer", "config": {"batch_input_shape": [null, 10], "dtype": "float32", "sparse": false, "ragged": false, "name": "input_0"}, "name": "input_0", "inbound_nodes": []}, {"class_name": "Dense", "config": {"name": "Dense928014dbac284f38c5f40e4e7df4459bb3125b45fb54939dd7c373fdd1a56c4987f337960a8c53b364135e0d08ff3dc3e6097186fed129c80d1abd32093ea7c1_0", "trainable": false, "dtype": "float32", "units": 4, "activation": "relu", "use_bias": true, "kernel_initializer": {"class_name": "GlorotUniform", "config": {"seed": null}}, "bias_initializer": {"class_name": "Zeros", "config": {}}, "kernel_regularizer": null, "bias_regularizer": null, "activity_regularizer": null, "kernel_constraint": null, "bias_constraint": null}, "name": "Dense928014dbac284f38c5f40e4e7df4459bb3125b45fb54939dd7c373fdd1a56c4987f337960a8c53b364135e0d08ff3dc3e6097186fed129c80d1abd32093ea7c1_0", "inbound_nodes": [[["input_0", 0, 0, {}]]]}, {"class_name": "Dense", "config": {"name": "Dense8d8ad08ba57c5cca9e2b771cb99d1b7bf10bcb3b54027fd115ddb816884b0fcaeaa8c3fa5acd458833f70340a2120fe2b5ecb5d107b6b1abe122b10bd5e9130a_0", "trainable": false, "dtype": "float32", "units": 2, "activation": "relu", "use_bias": true, "kernel_initializer": {"class_name": "GlorotUniform", "config": {"seed": null}}, "bias_initializer": {"class_name": "Zeros", "config": {}}, "kernel_regularizer": null, "bias_regularizer": null, "activity_regularizer": null, "kernel_constraint": null, "bias_constraint": null}, "name": "Dense8d8ad08ba57c5cca9e2b771cb99d1b7bf10bcb3b54027fd115ddb816884b0fcaeaa8c3fa5acd458833f70340a2120fe2b5ecb5d107b6b1abe122b10bd5e9130a_0", "inbound_nodes": [[["Dense928014dbac284f38c5f40e4e7df4459bb3125b45fb54939dd7c373fdd1a56c4987f337960a8c53b364135e0d08ff3dc3e6097186fed129c80d1abd32093ea7c1_0", 0, 0, {}]]]}, {"class_name": "Dense", "config": {"name": "Dense40c565904f1a443b48600dee887f46525c8200b23d2d4bee61a9114af0738c7b6894c57a1a00c1eebe982f3b5139206615b11db79331a4c9f0fca62f9b612c19_0", "trainable": true, "dtype": "float32", "units": 4, "activation": "relu", "use_bias": true, "kernel_initializer": {"class_name": "GlorotUniform", "config": {"seed": null}}, "bias_initializer": {"class_name": "Zeros", "config": {}}, "kernel_regularizer": null, "bias_regularizer": null, "activity_regularizer": null, "kernel_constraint": null, "bias_constraint": null}, "name": "Dense40c565904f1a443b48600dee887f46525c8200b23d2d4bee61a9114af0738c7b6894c57a1a00c1eebe982f3b5139206615b11db79331a4c9f0fca62f9b612c19_0", "inbound_nodes": [[["Dense8d8ad08ba57c5cca9e2b771cb99d1b7bf10bcb3b54027fd115ddb816884b0fcaeaa8c3fa5acd458833f70340a2120fe2b5ecb5d107b6b1abe122b10bd5e9130a_0", 0, 0, {}]]]}, {"class_name": "Dense", "config": {"name": "Dense91034ea0a95f2148c25c16624d9f3927bac49025168771b6e0ca078038a1085219c5b6e21d011ded4f6ab030e3d36c7b7fea9e6a4b553f0d96a57ca07422865a_0", "trainable": true, "dtype": "float32", "units": 2, "activation": "relu", "use_bias": true, "kernel_initializer": {"class_name": "GlorotUniform", "config": {"seed": null}}, "bias_initializer": {"class_name": "Zeros", "config": {}}, "kernel_regularizer": null, "bias_regularizer": null, "activity_regularizer": null, "kernel_constraint": null, "bias_constraint": null}, "name": "Dense91034ea0a95f2148c25c16624d9f3927bac49025168771b6e0ca078038a1085219c5b6e21d011ded4f6ab030e3d36c7b7fea9e6a4b553f0d96a57ca07422865a_0", "inbound_nodes": [[["Dense40c565904f1a443b48600dee887f46525c8200b23d2d4bee61a9114af0738c7b6894c57a1a00c1eebe982f3b5139206615b11db79331a4c9f0fca62f9b612c19_0", 0, 0, {}]]]}, {"class_name": "Dense", "config": {"name": "Dense3af88435e964ff42fd7e64c7da3a4b3ecbb5789588dac4f3fa57a75e46b30a6c1863fcb25c5934031bb8d598a82d09fa3a98e15202eb75fa5fed9112344189bd_0", "trainable": true, "dtype": "float32", "units": 2, "activation": "relu", "use_bias": true, "kernel_initializer": {"class_name": "GlorotUniform", "config": {"seed": null}}, "bias_initializer": {"class_name": "Zeros", "config": {}}, "kernel_regularizer": null, "bias_regularizer": null, "activity_regularizer": null, "kernel_constraint": null, "bias_constraint": null}, "name": "Dense3af88435e964ff42fd7e64c7da3a4b3ecbb5789588dac4f3fa57a75e46b30a6c1863fcb25c5934031bb8d598a82d09fa3a98e15202eb75fa5fed9112344189bd_0", "inbound_nodes": [[["Dense91034ea0a95f2148c25c16624d9f3927bac49025168771b6e0ca078038a1085219c5b6e21d011ded4f6ab030e3d36c7b7fea9e6a4b553f0d96a57ca07422865a_0", 0, 0, {}]]]}, {"class_name": "Dense", "config": {"name": "Densecca3091c19baa5c6db5e9d759af764378a80a0d4555bea08e30e917c9cd7c78e7f48b882708b897ad141a7b7e7ee04d1458a299dc4621b9f13b385ac392067ee_0", "trainable": true, "dtype": "float32", "units": 3, "activation": "relu", "use_bias": true, "kernel_initializer": {"class_name": "GlorotUniform", "config": {"seed": null}}, "bias_initializer": {"class_name": "Zeros", "config": {}}, "kernel_regularizer": null, "bias_regularizer": null, "activity_regularizer": null, "kernel_constraint": null, "bias_constraint": null}, "name": "Densecca3091c19baa5c6db5e9d759af764378a80a0d4555bea08e30e917c9cd7c78e7f48b882708b897ad141a7b7e7ee04d1458a299dc4621b9f13b385ac392067ee_0", "inbound_nodes": [[["Dense3af88435e964ff42fd7e64c7da3a4b3ecbb5789588dac4f3fa57a75e46b30a6c1863fcb25c5934031bb8d598a82d09fa3a98e15202eb75fa5fed9112344189bd_0", 0, 0, {}]]]}, {"class_name": "Dense", "config": {"name": "Densee2099724db6cd70a99e3048bb9aab48dcebc4499162075b21d9240366472f57771a2ca38823b9399efafc91e780861360514528906f430ce7d797d59dd23ca02_0", "trainable": true, "dtype": "float32", "units": 3, "activation": "relu", "use_bias": true, "kernel_initializer": {"class_name": "GlorotUniform", "config": {"seed": null}}, "bias_initializer": {"class_name": "Zeros", "config": {}}, "kernel_regularizer": null, "bias_regularizer": null, "activity_regularizer": null, "kernel_constraint": null, "bias_constraint": null}, "name": "Densee2099724db6cd70a99e3048bb9aab48dcebc4499162075b21d9240366472f57771a2ca38823b9399efafc91e780861360514528906f430ce7d797d59dd23ca02_0", "inbound_nodes": [[["Densecca3091c19baa5c6db5e9d759af764378a80a0d4555bea08e30e917c9cd7c78e7f48b882708b897ad141a7b7e7ee04d1458a299dc4621b9f13b385ac392067ee_0", 0, 0, {}]]]}, {"class_name": "Dense", "config": {"name": "Dense6dd7242b9befa20f8104700dccac6752a877f3175f0ab8679604e7c2103767b27dde2371afc6b56457b6590a44cd270dea7f5786b095af871dfa5cbc7391e3e8_0", "trainable": true, "dtype": "float32", "units": 2, "activation": "relu", "use_bias": true, "kernel_initializer": {"class_name": "GlorotUniform", "config": {"seed": null}}, "bias_initializer": {"class_name": "Zeros", "config": {}}, "kernel_regularizer": null, "bias_regularizer": null, "activity_regularizer": null, "kernel_constraint": null, "bias_constraint": null}, "name": "Dense6dd7242b9befa20f8104700dccac6752a877f3175f0ab8679604e7c2103767b27dde2371afc6b56457b6590a44cd270dea7f5786b095af871dfa5cbc7391e3e8_0", "inbound_nodes": [[["Densee2099724db6cd70a99e3048bb9aab48dcebc4499162075b21d9240366472f57771a2ca38823b9399efafc91e780861360514528906f430ce7d797d59dd23ca02_0", 0, 0, {}]]]}, {"class_name": "Dense", "config": {"name": "Densee0f6728287012db9cafb8791b4edd0e45b93733fe55f527276deb0eb5ffd0320dc6fb779a907a5499321cbda544e6f2ad602b723ec469f144f83e6af5fac3397_0", "trainable": true, "dtype": "float32", "units": 2, "activation": "relu", "use_bias": true, "kernel_initializer": {"class_name": "GlorotUniform", "config": {"seed": null}}, "bias_initializer": {"class_name": "Zeros", "config": {}}, "kernel_regularizer": null, "bias_regularizer": null, "activity_regularizer": null, "kernel_constraint": null, "bias_constraint": null}, "name": "Densee0f6728287012db9cafb8791b4edd0e45b93733fe55f527276deb0eb5ffd0320dc6fb779a907a5499321cbda544e6f2ad602b723ec469f144f83e6af5fac3397_0", "inbound_nodes": [[["Dense6dd7242b9befa20f8104700dccac6752a877f3175f0ab8679604e7c2103767b27dde2371afc6b56457b6590a44cd270dea7f5786b095af871dfa5cbc7391e3e8_0", 0, 0, {}]]]}, {"class_name": "Dense", "config": {"name": "Dense369bc755d90a591a97d0822c3eddd14086032304754837c2b2878457e144fc09110f5711e10240cf830a71aabf07ecfc1dfb29fd9799a958b5b2dc53f54a286e_0", "trainable": true, "dtype": "float32", "units": 1, "activation": "linear", "use_bias": true, "kernel_initializer": {"class_name": "GlorotUniform", "config": {"seed": null}}, "bias_initializer": {"class_name": "Zeros", "config": {}}, "kernel_regularizer": null, "bias_regularizer": null, "activity_regularizer": null, "kernel_constraint": null, "bias_constraint": null}, "name": "Dense369bc755d90a591a97d0822c3eddd14086032304754837c2b2878457e144fc09110f5711e10240cf830a71aabf07ecfc1dfb29fd9799a958b5b2dc53f54a286e_0", "inbound_nodes": [[["Densee0f6728287012db9cafb8791b4edd0e45b93733fe55f527276deb0eb5ffd0320dc6fb779a907a5499321cbda544e6f2ad602b723ec469f144f83e6af5fac3397_0", 0, 0, {}]]]}], "input_layers": [["input_0", 0, 0]], "output_layers": [["Dense369bc755d90a591a97d0822c3eddd14086032304754837c2b2878457e144fc09110f5711e10240cf830a71aabf07ecfc1dfb29fd9799a958b5b2dc53f54a286e_0", 0, 0]]}
{"name": "model", "layers": [{"class_name": "InputLayer", "config": {"batch_input_shape": [null, 10], "dtype": "float32", "sparse": false, "ragged": false, "name": "input_0"}, "name": "input_0", "inbound_nodes": []}, {"class_name": "Dense", "config": {"name": "Dense52c2fd52bd0911375d0f70310bc27ee458b90f7330be3ec8c9b347f785f87006ec01d97fb1b2bd63c85af38321c93f1471c7b2ed3a039e1f8c89e26a9130674a_0", "trainable": false, "dtype": "float32", "units": 1, "activation": "relu", "use_bias": true, "kernel_initializer": {"class_name": "GlorotUniform", "config": {"seed": null}}, "bias_initializer": {"class_name": "Zeros", "config": {}}, "kernel_regularizer": null, "bias_regularizer": null, "activity_regularizer": null, "kernel_constraint": null, "bias_constraint": null}, "name": "Dense52c2fd52bd0911375d0f70310bc27ee458b90f7330be3ec8c9b347f785f87006ec01d97fb1b2bd63c85af38321c93f1471c7b2ed3a039e1f8c89e26a9130674a_0", "inbound_nodes": [[["input_0", 0, 0, {}]]]}, {"class_name": "Dense", "config": {"name": "Dense13c3e6647ca3a2cc5a73625eb1b11a2fe3b8b1027961a972c92ebfa5de649635792ed2bf0da49a3fc865c81bac3e23b5ad6fa1b8c62d6f26220c3c72297e31c7_0", "trainable": false, "dtype": "float32", "units": 4, "activation": "relu", "use_bias": true, "kernel_initializer": {"class_name": "GlorotUniform", "config": {"seed": null}}, "bias_initializer": {"class_name": "Zeros", "config": {}}, "kernel_regularizer": null, "bias_regularizer": null, "activity_regularizer": null, "kernel_constraint": null, "bias_constraint": null}, "name": "Dense13c3e6647ca3a2cc5a73625eb1b11a2fe3b8b1027961a972c92ebfa5de649635792ed2bf0da49a3fc865c81bac3e23b5ad6fa1b8c62d6f26220c3c72297e31c7_0", "inbound_nodes": [[["Dense52c2fd52bd0911375d0f70310bc27ee458b90f7330be3ec8c9b347f785f87006ec01d97fb1b2bd63c85af38321c93f1471c7b2ed3a039e1f8c89e26a9130674a_0", 0, 0, {}]]]}, {"class_name": "Dense", "config": {"name": "Dense8f6b6d13a62849e5f29c097bf855791533ac175649d5133f2182464c2b7f132e6f82eccf4ea51123799976e1bcdbe9416ff1374d7b04c3114fb08f57eb715ddb_0", "trainable": false, "dtype": "float32", "units": 2, "activation": "relu", "use_bias": true, "kernel_initializer": {"class_name": "GlorotUniform", "config": {"seed": null}}, "bias_initializer": {"class_name": "Zeros", "config": {}}, "kernel_regularizer": null, "bias_regularizer": null, "activity_regularizer": null, "kernel_constraint": null, "bias_constraint": null}, "name": "Dense8f6b6d13a62849e5f29c097bf855791533ac175649d5133f2182464c2b7f132e6f82eccf4ea51123799976e1bcdbe9416ff1374d7b04c3114fb08f57eb715ddb_0", "inbound_nodes": [[["Dense13c3e6647ca3a2cc5a73625eb1b11a2fe3b8b1027961a972c92ebfa5de649635792ed2bf0da49a3fc865c81bac3e23b5ad6fa1b8c62d6f26220c3c72297e31c7_0", 0, 0, {}]]]}, {"class_name": "Dense", "config": {"name": "Densefd2c631afe2ec2dc076d13d40dc510e403f0969cd12d03d8bc531c2cae33e0ef172114f7a7ab20e6fc95e51e656412640d37f906b2d8170ac5788d8c58030b34_0", "trainable": false, "dtype": "float32", "units": 1, "activation": "relu", "use_bias": true, "kernel_initializer": {"class_name": "GlorotUniform", "config": {"seed": null}}, "bias_initializer": {"class_name": "Zeros", "config": {}}, "kernel_regularizer": null, "bias_regularizer": null, "activity_regularizer": null, "kernel_constraint": null, "bias_constraint": null}, "name": "Densefd2c631afe2ec2dc076d13d40dc510e403f0969cd12d03d8bc531c2cae33e0ef172114f7a7ab20e6fc95e51e656412640d37f906b2d8170ac5788d8c58030b34_0", "inbound_nodes": [[["Dense8f6b6d13a62849e5f29c097bf855791533ac175649d5133f2182464c2b7f132e6f82eccf4ea51123799976e1bcdbe9416ff1374d7b04c3114fb08f57eb715ddb_0", 0, 0, {}]]]}, {"class_name": "Dense", "config": {"name": "Dense4cf197359473a55bde8868c9ab331c23e4dcfb54b5f058e3c1874d8f56155e44e7aeaf7317350806ea36147b065c26fe3160071e156d20262f249f3365a84804_0", "trainable": false, "dtype": "float32", "units": 1, "activation": "relu", "use_bias": true, "kernel_initializer": {"class_name": "GlorotUniform", "config": {"seed": null}}, "bias_initializer": {"class_name": "Zeros", "config": {}}, "kernel_regularizer": null, "bias_regularizer": null, "activity_regularizer": null, "kernel_constraint": null, "bias_constraint": null}, "name": "Dense4cf197359473a55bde8868c9ab331c23e4dcfb54b5f058e3c1874d8f56155e44e7aeaf7317350806ea36147b065c26fe3160071e156d20262f249f3365a84804_0", "inbound_nodes": [[["Densefd2c631afe2ec2dc076d13d40dc510e403f0969cd12d03d8bc531c2cae33e0ef172114f7a7ab20e6fc95e51e656412640d37f906b2d8170ac5788d8c58030b34_0", 0, 0, {}]]]}, {"class_name": "Dense", "config": {"name": "Dense3957b980c00f310640d69397b7c89961e059ed11ebcc332d79d69b8a090cbb9bd2d6a847055a105f98056a7d51d5c299d5b0fec1ce4f7abad798e4cfdc386190_0", "trainable": false, "dtype": "float32", "units": 3, "activation": "relu", "use_bias": true, "kernel_initializer": {"class_name": "GlorotUniform", "config": {"seed": null}}, "bias_initializer": {"class_name": "Zeros", "config": {}}, "kernel_regularizer": null, "bias_regularizer": null, "activity_regularizer": null, "kernel_constraint": null, "bias_constraint": null}, "name": "Dense3957b980c00f310640d69397b7c89961e059ed11ebcc332d79d69b8a090cbb9bd2d6a847055a105f98056a7d51d5c299d5b0fec1ce4f7abad798e4cfdc386190_0", "inbound_nodes": [[["Dense4cf197359473a55bde8868c9ab331c23e4dcfb54b5f058e3c1874d8f56155e44e7aeaf7317350806ea36147b065c26fe3160071e156d20262f249f3365a84804_0", 0, 0, {}]]]}, {"class_name": "Dense", "config": {"name": "Dense5a66a737247cf4859cb45cbaad660c67049d715dcab95fdf264fb40ea2182e4fe6e0c43f9c0df44452459c4be7844ac1408f4c1bb0f78fafc0a099b647f13052_0", "trainable": false, "dtype": "float32", "units": 4, "activation": "relu", "use_bias": true, "kernel_initializer": {"class_name": "GlorotUniform", "config": {"seed": null}}, "bias_initializer": {"class_name": "Zeros", "config": {}}, "kernel_regularizer": null, "bias_regularizer": null, "activity_regularizer": null, "kernel_constraint": null, "bias_constraint": null}, "name": "Dense5a66a737247cf4859cb45cbaad660c67049d715dcab95fdf264fb40ea2182e4fe6e0c43f9c0df44452459c4be7844ac1408f4c1bb0f78fafc0a099b647f13052_0", "inbound_nodes": [[["Dense3957b980c00f310640d69397b7c89961e059ed11ebcc332d79d69b8a090cbb9bd2d6a847055a105f98056a7d51d5c299d5b0fec1ce4f7abad798e4cfdc386190_0", 0, 0, {}]]]}, {"class_name": "Dense", "config": {"name": "Dense2e8b71260984ad06b3a0801d035b89e08aec83f504843feb7ed107249c7816c523746b1d5ea26848ff552196bf6d2adf02eba447355bfcfca3cfe0747b170f45_0", "trainable": false, "dtype": "float32", "units": 3, "activation": "relu", "use_bias": true, "kernel_initializer": {"class_name": "GlorotUniform", "config": {"seed": null}}, "bias_initializer": {"class_name": "Zeros", "config": {}}, "kernel_regularizer": null, "bias_regularizer": null, "activity_regularizer": null, "kernel_constraint": null, "bias_constraint": null}, "name": "Dense2e8b71260984ad06b3a0801d035b89e08aec83f504843feb7ed107249c7816c523746b1d5ea26848ff552196bf6d2adf02eba447355bfcfca3cfe0747b170f45_0", "inbound_nodes": [[["Dense5a66a737247cf4859cb45cbaad660c67049d715dcab95fdf264fb40ea2182e4fe6e0c43f9c0df44452459c4be7844ac1408f4c1bb0f78fafc0a099b647f13052_0", 0, 0, {}]]]}, {"class_name": "Dense", "config": {"name": "Dense84611f6640c63ddfab146377769c385be661a4d3f4860d77013a21f23f9784088462fc99b5815d983fb74aebb813fcb937ff49bdc0f17e52c28f99048c07d97a_0", "trainable": false, "dtype": "float32", "units": 1, "activation": "linear", "use_bias": true, "kernel_initializer": {"class_name": "GlorotUniform", "config": {"seed": null}}, "bias_initializer": {"class_name": "Zeros", "config": {}}, "kernel_regularizer": null, "bias_regularizer": null, "activity_regularizer": null, "kernel_constraint": null, "bias_constraint": null}, "name": "Dense84611f6640c63ddfab146377769c385be661a4d3f4860d77013a21f23f9784088462fc99b5815d983fb74aebb813fcb937ff49bdc0f17e52c28f99048c07d97a_0", "inbound_nodes": [[["Dense2e8b71260984ad06b3a0801d035b89e08aec83f504843feb7ed107249c7816c523746b1d5ea26848ff552196bf6d2adf02eba447355bfcfca3cfe0747b170f45_0", 0, 0, {}]]]}], "input_layers": [["input_0", 0, 0]], "output_layers": [["Dense84611f6640c63ddfab146377769c385be661a4d3f4860d77013a21f23f9784088462fc99b5815d983fb74aebb813fcb937ff49bdc0f17e52c28f99048c07d97a_0", 0, 0]]}
{"name": "model", "layers": [{"class_name": "InputLayer", "config": {"batch_input_shape": [null, 10], "dtype": "float32", "sparse": false, "ragged": false, "name": "input_0"}, "name": "input_0", "inbound_nodes": []}, {"class_name": "Dense", "config": {"name": "Densebe2612bdfe58306ea65bbac462c5ecf7c1df641d430b05e5f6720631359a5532b5a9e4b7ec576fdf07c3f51119d3c98d93860ea343fad32c936cb6cce92ce715_0", "trainable": false, "dtype": "float32", "units": 3, "activation": "relu", "use_bias": true, "kernel_initializer": {"class_name": "GlorotUniform", "config": {"seed": null}}, "bias_initializer": {"class_name": "Zeros", "config": {}}, "kernel_regularizer": null, "bias_regularizer": null, "activity_regularizer": null, "kernel_constraint": null, "bias_constraint": null}, "name": "Densebe2612bdfe58306ea65bbac462c5ecf7c1df641d430b05e5f6720631359a5532b5a9e4b7ec576fdf07c3f51119d3c98d93860ea343fad32c936cb6cce92ce715_0", "inbound_nodes": [[["input_0", 0, 0, {}]]]}, {"class_name": "Dense", "config": {"name": "Dense23380d91ad5169c9c8ca323ba760662738a9e5b5a39f2d24e3830be930abb3b60171411dbad86d3b5976b0c9ce57482189416f8720144a9dae8eeff68f569360_0", "trainable": false, "dtype": "float32", "units": 4, "activation": "relu", "use_bias": true, "kernel_initializer": {"class_name": "GlorotUniform", "config": {"seed": null}}, "bias_initializer": {"class_name": "Zeros", "config": {}}, "kernel_regularizer": null, "bias_regularizer": null, "activity_regularizer": null, "kernel_constraint": null, "bias_constraint": null}, "name": "Dense23380d91ad5169c9c8ca323ba760662738a9e5b5a39f2d24e3830be930abb3b60171411dbad86d3b5976b0c9ce57482189416f8720144a9dae8eeff68f569360_0", "inbound_nodes": [[["Densebe2612bdfe58306ea65bbac462c5ecf7c1df641d430b05e5f6720631359a5532b5a9e4b7ec576fdf07c3f51119d3c98d93860ea343fad32c936cb6cce92ce715_0", 0, 0, {}]]]}, {"class_name": "Dense", "config": {"name": "Dense778c800b8e5a8e72d26c896219e97f7c75475614fe5b3ed6804a01280777bc9db4a374db0acb16f3a73abbdb8fe38d2fe35bb89e99258757a11351289fad3501_0", "trainable": true, "dtype": "float32", "units": 3, "activation": "relu", "use_bias": true, "kernel_initializer": {"class_name": "GlorotUniform", "config": {"seed": null}}, "bias_initializer": {"class_name": "Zeros", "config": {}}, "kernel_regularizer": null, "bias_regularizer": null, "activity_regularizer": null, "kernel_constraint": null, "bias_constraint": null}, "name": "Dense778c800b8e5a8e72d26c896219e97f7c75475614fe5b3ed6804a01280777bc9db4a374db0acb16f3a73abbdb8fe38d2fe35bb89e99258757a11351289fad3501_0", "inbound_nodes": [[["Dense23380d91ad5169c9c8ca323ba760662738a9e5b5a39f2d24e3830be930abb3b60171411dbad86d3b5976b0c9ce57482189416f8720144a9dae8eeff68f569360_0", 0, 0, {}]]]}, {"class_name": "Dense", "config": {"name": "Densee1d79c2479c2a7b26bf67e7f9084b6c4aefab99256721a172c9b61708844c072b6fb0f69e4d823ce33adaed4bc69bc65798ee958a56b29be0058ee66be4e2ca5_0", "trainable": true, "dtype": "float32", "units": 2, "activation": "relu", "use_bias": true, "kernel_initializer": {"class_name": "GlorotUniform", "config": {"seed": null}}, "bias_initializer": {"class_name": "Zeros", "config": {}}, "kernel_regularizer": null, "bias_regularizer": null, "activity_regularizer": null, "kernel_constraint": null, "bias_constraint": null}, "name": "Densee1d79c2479c2a7b26bf67e7f9084b6c4aefab99256721a172c9b61708844c072b6fb0f69e4d823ce33adaed4bc69bc65798ee958a56b29be0058ee66be4e2ca5_0", "inbound_nodes": [[["Dense778c800b8e5a8e72d26c896219e97f7c75475614fe5b3ed6804a01280777bc9db4a374db0acb16f3a73abbdb8fe38d2fe35bb89e99258757a11351289fad3501_0", 0, 0, {}]]]}, {"class_name": "Dense", "config": {"name": "Dense851cf810da0e3c91c529c9ba014c921284510812b228e054fefd710a90b13f9eacb4c41902e7a03b18b6893ac49fac571e3be5c9545386a61101bb7dd06e1d78_0", "trainable": true, "dtype": "float32", "units": 4, "activation": "relu", "use_bias": true, "kernel_initializer": {"class_name": "GlorotUniform", "config": {"seed": null}}, "bias_initializer": {"class_name": "Zeros", "config": {}}, "kernel_regularizer": null, "bias_regularizer": null, "activity_regularizer": null, "kernel_constraint": null, "bias_constraint": null}, "name": "Dense851cf810da0e3c91c529c9ba014c921284510812b228e054fefd710a90b13f9eacb4c41902e7a03b18b6893ac49fac571e3be5c9545386a61101bb7dd06e1d78_0", "inbound_nodes": [[["Densee1d79c2479c2a7b26bf67e7f9084b6c4aefab99256721a172c9b61708844c072b6fb0f69e4d823ce33adaed4bc69bc65798ee958a56b29be0058ee66be4e2ca5_0", 0, 0, {}]]]}, {"class_name": "Dense", "config": {"name": "Dense39f4c116fc899d522fcea9dda120b6faf7861a98b1adc5860c8aba4da6eb90938a41ef166b3db527d7e9fd9d19424af4408bcd8f0327eb057325bf1486ecf69a_0", "trainable": true, "dtype": "float32", "units": 3, "activation": "relu", "use_bias": true, "kernel_initializer": {"class_name": "GlorotUniform", "config": {"seed": null}}, "bias_initializer": {"class_name": "Zeros", "config": {}}, "kernel_regularizer": null, "bias_regularizer": null, "activity_regularizer": null, "kernel_constraint": null, "bias_constraint": null}, "name": "Dense39f4c116fc899d522fcea9dda120b6faf7861a98b1adc5860c8aba4da6eb90938a41ef166b3db527d7e9fd9d19424af4408bcd8f0327eb057325bf1486ecf69a_0", "inbound_nodes": [[["Dense851cf810da0e3c91c529c9ba014c921284510812b228e054fefd710a90b13f9eacb4c41902e7a03b18b6893ac49fac571e3be5c9545386a61101bb7dd06e1d78_0", 0, 0, {}]]]}, {"class_name": "Dense", "config": {"name": "Dense468786aff01eb019551234792cdbae4d0dfcb46b7b9a5705835d65c3cf28f9ff9bee4f6a85a75a3894d7e2440d434d86af685be4146123e38f5cc6f2527a11be_0", "trainable": true, "dtype": "float32", "units": 2, "activation": "relu", "use_bias": true, "kernel_initializer": {"class_name": "GlorotUniform", "config": {"seed": null}}, "bias_initializer": {"class_name": "Zeros", "config": {}}, "kernel_regularizer": null, "bias_regularizer": null, "activity_regularizer": null, "kernel_constraint": null, "bias_constraint": null}, "name": "Dense468786aff01eb019551234792cdbae4d0dfcb46b7b9a5705835d65c3cf28f9ff9bee4f6a85a75a3894d7e2440d434d86af685be4146123e38f5cc6f2527a11be_0", "inbound_nodes": [[["Dense39f4c116fc899d522fcea9dda120b6faf7861a98b1adc5860c8aba4da6eb90938a41ef166b3db527d7e9fd9d19424af4408bcd8f0327eb057325bf1486ecf69a_0", 0, 0, {}]]]}, {"class_name": "Dense", "config": {"name": "Dense8cf6046183f7b2a6519afd756f01ba5a813806fb3cf86749b52c26fb071bc50412dfb4470c670b7cfb3d39ea59311b7d89457906638493b1bd16e4f7b813fdfc_0", "trainable": true, "dtype": "float32", "units": 1, "activation": "linear", "use_bias": true, "kernel_initializer": {"class_name": "GlorotUniform", "config": {"seed": null}}, "bias_initializer": {"class_name": "Zeros", "config": {}}, "kernel_regularizer": null, "bias_regularizer": null, "activity_regularizer": null, "kernel_constraint": null, "bias_constraint": null}, "name": "Dense8cf6046183f7b2a6519afd756f01ba5a813806fb3cf86749b52c26fb071bc50412dfb4470c670b7cfb3d39ea59311b7d89457906638493b1bd16e4f7b813fdfc_0", "inbound_nodes": [[["Dense468786aff01eb019551234792cdbae4d0dfcb46b7b9a5705835d65c3cf28f9ff9bee4f6a85a75a3894d7e2440d434d86af685be4146123e38f5cc6f2527a11be_0", 0, 0, {}]]]}], "input_layers": [["input_0", 0, 0]], "output_layers": [["Dense8cf6046183f7b2a6519afd756f01ba5a813806fb3cf86749b52c26fb071bc50412dfb4470c670b7cfb3d39ea59311b7d89457906638493b1bd16e4f7b813fdfc_0", 0, 0]]}
{"name": "model", "layers": [{"class_name": "InputLayer", "config": {"batch_input_shape": [null, 10], "dtype": "float32", "sparse": false, "ragged": false, "name": "input_0"}, "name": "input_0", "inbound_nodes": []}, {"class_name": "Dense", "config": {"name": "Dense928014dbac284f38c5f40e4e7df4459bb3125b45fb54939dd7c373fdd1a56c4987f337960a8c53b364135e0d08ff3dc3e6097186fed129c80d1abd32093ea7c1_0", "trainable": false, "dtype": "float32", "units": 4, "activation": "relu", "use_bias": true, "kernel_initializer": {"class_name": "GlorotUniform", "config": {"seed": null}}, "bias_initializer": {"class_name": "Zeros", "config": {}}, "kernel_regularizer": null, "bias_regularizer": null, "activity_regularizer": null, "kernel_constraint": null, "bias_constraint": null}, "name": "Dense928014dbac284f38c5f40e4e7df4459bb3125b45fb54939dd7c373fdd1a56c4987f337960a8c53b364135e0d08ff3dc3e6097186fed129c80d1abd32093ea7c1_0", "inbound_nodes": [[["input_0", 0, 0, {}]]]}, {"class_name": "Dense", "config": {"name": "Dense4ed5e4fa448b1457099616aba55b352839848ddea34d8fe2f43dd06c07ff6ca84e0d2d7edb9ccc132cf9366275dcb6aff10611f0be6839d29c31ac42ad746f3e_0", "trainable": false, "dtype": "float32", "units": 3, "activation": "relu", "use_bias": true, "kernel_initializer": {"class_name": "GlorotUniform", "config": {"seed": null}}, "bias_initializer": {"class_name": "Zeros", "config": {}}, "kernel_regularizer": null, "bias_regularizer": null, "activity_regularizer": null, "kernel_constraint": null, "bias_constraint": null}, "name": "Dense4ed5e4fa448b1457099616aba55b352839848ddea34d8fe2f43dd06c07ff6ca84e0d2d7edb9ccc132cf9366275dcb6aff10611f0be6839d29c31ac42ad746f3e_0", "inbound_nodes": [[["Dense928014dbac284f38c5f40e4e7df4459bb3125b45fb54939dd7c373fdd1a56c4987f337960a8c53b364135e0d08ff3dc3e6097186fed129c80d1abd32093ea7c1_0", 0, 0, {}]]]}, {"class_name": "Dense", "config": {"name": "Dense3036fbd304a4f333fe24bee83ef762d6cd59b7f43cc4380ccba8ed67757a3a66e7ecc53ef19b07c5c28bf27aa5da3d62f18cb6a30c0261ffd48535ff40d49e5d_0", "trainable": false, "dtype": "float32", "units": 1, "activation": "relu", "use_bias": true, "kernel_initializer": {"class_name": "GlorotUniform", "config": {"seed": null}}, "bias_initializer": {"class_name": "Zeros", "config": {}}, "kernel_regularizer": null, "bias_regularizer": null, "activity_regularizer": null, "kernel_constraint": null, "bias_constraint": null}, "name": "Dense3036fbd304a4f333fe24bee83ef762d6cd59b7f43cc4380ccba8ed67757a3a66e7ecc53ef19b07c5c28bf27aa5da3d62f18cb6a30c0261ffd48535ff40d49e5d_0", "inbound_nodes": [[["Dense4ed5e4fa448b1457099616aba55b352839848ddea34d8fe2f43dd06c07ff6ca84e0d2d7edb9ccc132cf9366275dcb6aff10611f0be6839d29c31ac42ad746f3e_0", 0, 0, {}]]]}, {"class_name": "Dense", "config": {"name": "Denseddd355b6d93b2ef4dd115510b7444b26f20792eb872d994b18a32c96923a722901879572e1de14e3224f2ac51140686a09fad0dbadb0ca7ac9c7c49b74edaa9a_0", "trainable": false, "dtype": "float32", "units": 2, "activation": "relu", "use_bias": true, "kernel_initializer": {"class_name": "GlorotUniform", "config": {"seed": null}}, "bias_initializer": {"class_name": "Zeros", "config": {}}, "kernel_regularizer": null, "bias_regularizer": null, "activity_regularizer": null, "kernel_constraint": null, "bias_constraint": null}, "name": "Denseddd355b6d93b2ef4dd115510b7444b26f20792eb872d994b18a32c96923a722901879572e1de14e3224f2ac51140686a09fad0dbadb0ca7ac9c7c49b74edaa9a_0", "inbound_nodes": [[["Dense3036fbd304a4f333fe24bee83ef762d6cd59b7f43cc4380ccba8ed67757a3a66e7ecc53ef19b07c5c28bf27aa5da3d62f18cb6a30c0261ffd48535ff40d49e5d_0", 0, 0, {}]]]}, {"class_name": "Dense", "config": {"name": "Densed6cec3ca5daf24b15f6bb18a038603b8f371a57d88ea2a77590fe92e6a51bb88c83cbcee91c3f6df909bc4a5c4f417c03e7a476879240eff57b9ee5dc7128297_0", "trainable": true, "dtype": "float32", "units": 2, "activation": "relu", "use_bias": true, "kernel_initializer": {"class_name": "GlorotUniform", "config": {"seed": null}}, "bias_initializer": {"class_name": "Zeros", "config": {}}, "kernel_regularizer": null, "bias_regularizer": null, "activity_regularizer": null, "kernel_constraint": null, "bias_constraint": null}, "name": "Densed6cec3ca5daf24b15f6bb18a038603b8f371a57d88ea2a77590fe92e6a51bb88c83cbcee91c3f6df909bc4a5c4f417c03e7a476879240eff57b9ee5dc7128297_0", "inbound_nodes": [[["Denseddd355b6d93b2ef4dd115510b7444b26f20792eb872d994b18a32c96923a722901879572e1de14e3224f2ac51140686a09fad0dbadb0ca7ac9c7c49b74edaa9a_0", 0, 0, {}]]]}, {"class_name": "Dense", "config": {"name": "Dense40d94657784b61016038f2b40ef9a239602fd8a80c24e6f119c9ec2646d5af6bcb9d0267209cf2b0becb83ad0b8f4f131f6aadfeca0db6ec654e3d43191f8fd3_0", "trainable": true, "dtype": "float32", "units": 3, "activation": "relu", "use_bias": true, "kernel_initializer": {"class_name": "GlorotUniform", "config": {"seed": null}}, "bias_initializer": {"class_name": "Zeros", "config": {}}, "kernel_regularizer": null, "bias_regularizer": null, "activity_regularizer": null, "kernel_constraint": null, "bias_constraint": null}, "name": "Dense40d94657784b61016038f2b40ef9a239602fd8a80c24e6f119c9ec2646d5af6bcb9d0267209cf2b0becb83ad0b8f4f131f6aadfeca0db6ec654e3d43191f8fd3_0", "inbound_nodes": [[["Densed6cec3ca5daf24b15f6bb18a038603b8f371a57d88ea2a77590fe92e6a51bb88c83cbcee91c3f6df909bc4a5c4f417c03e7a476879240eff57b9ee5dc7128297_0", 0, 0, {}]]]}, {"class_name": "Dense", "config": {"name": "Densecd11bac7dd2846e47f95ad1a3c06bed36ed6c4c1903098df84da045c26ce4c5f9502cf0358037065ce590797bdf1a84da907f0cffd34c80406a75451590935e1_0", "trainable": true, "dtype": "float32", "units": 4, "activation": "relu", "use_bias": true, "kernel_initializer": {"class_name": "GlorotUniform", "config": {"seed": null}}, "bias_initializer": {"class_name": "Zeros", "config": {}}, "kernel_regularizer": null, "bias_regularizer": null, "activity_regularizer": null, "kernel_constraint": null, "bias_constraint": null}, "name": "Densecd11bac7dd2846e47f95ad1a3c06bed36ed6c4c1903098df84da045c26ce4c5f9502cf0358037065ce590797bdf1a84da907f0cffd34c80406a75451590935e1_0", "inbound_nodes": [[["Dense40d94657784b61016038f2b40ef9a239602fd8a80c24e6f119c9ec2646d5af6bcb9d0267209cf2b0becb83ad0b8f4f131f6aadfeca0db6ec654e3d43191f8fd3_0", 0, 0, {}]]]}, {"class_name": "Dense", "config": {"name": "Dense8c735b61cf5d0be99b06d0f56bc51a4f433393a6f21cfec9a06854613c822bb3cfa46105ccc677f605b06ec93befc1e1c7db7c38da27543cc413258af8d74e4e_0", "trainable": true, "dtype": "float32", "units": 4, "activation": "relu", "use_bias": true, "kernel_initializer": {"class_name": "GlorotUniform", "config": {"seed": null}}, "bias_initializer": {"class_name": "Zeros", "config": {}}, "kernel_regularizer": null, "bias_regularizer": null, "activity_regularizer": null, "kernel_constraint": null, "bias_constraint": null}, "name": "Dense8c735b61cf5d0be99b06d0f56bc51a4f433393a6f21cfec9a06854613c822bb3cfa46105ccc677f605b06ec93befc1e1c7db7c38da27543cc413258af8d74e4e_0", "inbound_nodes": [[["Densecd11bac7dd2846e47f95ad1a3c06bed36ed6c4c1903098df84da045c26ce4c5f9502cf0358037065ce590797bdf1a84da907f0cffd34c80406a75451590935e1_0", 0, 0, {}]]]}, {"class_name": "Dense", "config": {"name": "Dense9ec8a1736837cc4c8ab846934f9a3e928c6e272fef4132e899af963ca32eb1a86f6513334fd7a21f3d5799e4d51b2f52e8a8d243105e35f84975c5189d62a352_0", "trainable": true, "dtype": "float32", "units": 1, "activation": "linear", "use_bias": true, "kernel_initializer": {"class_name": "GlorotUniform", "config": {"seed": null}}, "bias_initializer": {"class_name": "Zeros", "config": {}}, "kernel_regularizer": null, "bias_regularizer": null, "activity_regularizer": null, "kernel_constraint": null, "bias_constraint": null}, "name": "Dense9ec8a1736837cc4c8ab846934f9a3e928c6e272fef4132e899af963ca32eb1a86f6513334fd7a21f3d5799e4d51b2f52e8a8d243105e35f84975c5189d62a352_0", "inbound_nodes": [[["Dense8c735b61cf5d0be99b06d0f56bc51a4f433393a6f21cfec9a06854613c822bb3cfa46105ccc677f605b06ec93befc1e1c7db7c38da27543cc413258af8d74e4e_0", 0, 0, {}]]]}], "input_layers": [["input_0", 0, 0]], "output_layers": [["Dense9ec8a1736837cc4c8ab846934f9a3e928c6e272fef4132e899af963ca32eb1a86f6513334fd7a21f3d5799e4d51b2f52e8a8d243105e35f84975c5189d62a352_0", 0, 0]]}
{"name": "model", "layers": [{"class_name": "InputLayer", "config": {"batch_input_shape": [null, 10], "dtype": "float32", "sparse": false, "ragged": false, "name": "input_0"}, "name": "input_0", "inbound_nodes": []}, {"class_name": "Dense", "config": {"name": "Dense52c2fd52bd0911375d0f70310bc27ee458b90f7330be3ec8c9b347f785f87006ec01d97fb1b2bd63c85af38321c93f1471c7b2ed3a039e1f8c89e26a9130674a_0", "trainable": false, "dtype": "float32", "units": 1, "activation": "relu", "use_bias": true, "kernel_initializer": {"class_name": "GlorotUniform", "config": {"seed": null}}, "bias_initializer": {"class_name": "Zeros", "config": {}}, "kernel_regularizer": null, "bias_regularizer": null, "activity_regularizer": null, "kernel_constraint": null, "bias_constraint": null}, "name": "Dense52c2fd52bd0911375d0f70310bc27ee458b90f7330be3ec8c9b347f785f87006ec01d97fb1b2bd63c85af38321c93f1471c7b2ed3a039e1f8c89e26a9130674a_0", "inbound_nodes": [[["input_0", 0, 0, {}]]]}, {"class_name": "Dense", "config": {"name": "Dense13c3e6647ca3a2cc5a73625eb1b11a2fe3b8b1027961a972c92ebfa5de649635792ed2bf0da49a3fc865c81bac3e23b5ad6fa1b8c62d6f26220c3c72297e31c7_0", "trainable": false, "dtype": "float32", "units": 4, "activation": "relu", "use_bias": true, "kernel_initializer": {"class_name": "GlorotUniform", "config": {"seed": null}}, "bias_initializer": {"class_name": "Zeros", "config": {}}, "kernel_regularizer": null, "bias_regularizer": null, "activity_regularizer": null, "kernel_constraint": null, "bias_constraint": null}, "name": "Dense13c3e6647ca3a2cc5a73625eb1b11a2fe3b8b1027961a972c92ebfa5de649635792ed2bf0da49a3fc865c81bac3e23b5ad6fa1b8c62d6f26220c3c72297e31c7_0", "inbound_nodes": [[["Dense52c2fd52bd0911375d0f70310bc27ee458b90f7330be3ec8c9b347f785f87006ec01d97fb1b2bd63c85af38321c93f1471c7b2ed3a039e1f8c89e26a9130674a_0", 0, 0, {}]]]}, {"class_name": "Dense", "config": {"name": "Densefac4bdab210ea5283830208beb89c73ae00c361c1c63297dcc632cb11a255e0ba9243ef31004f8cae140d53a6258e4412596fe04f5c7c06f3d8d2aabb47c1b70_0", "trainable": false, "dtype": "float32", "units": 4, "activation": "relu", "use_bias": true, "kernel_initializer": {"class_name": "GlorotUniform", "config": {"seed": null}}, "bias_initializer": {"class_name": "Zeros", "config": {}}, "kernel_regularizer": null, "bias_regularizer": null, "activity_regularizer": null, "kernel_constraint": null, "bias_constraint": null}, "name": "Densefac4bdab210ea5283830208beb89c73ae00c361c1c63297dcc632cb11a255e0ba9243ef31004f8cae140d53a6258e4412596fe04f5c7c06f3d8d2aabb47c1b70_0", "inbound_nodes": [[["Dense13c3e6647ca3a2cc5a73625eb1b11a2fe3b8b1027961a972c92ebfa5de649635792ed2bf0da49a3fc865c81bac3e23b5ad6fa1b8c62d6f26220c3c72297e31c7_0", 0, 0, {}]]]}, {"class_name": "Dense", "config": {"name": "Densec60d7f69b1d9a12015c0ac9d3a82cecc67fd80269003dd468a5c65420f8108fb64a0ff7a96a86166995b919cad035c76f09fddc6c0fea89b500e9ba5c54b333d_0", "trainable": true, "dtype": "float32", "units": 1, "activation": "relu", "use_bias": true, "kernel_initializer": {"class_name": "GlorotUniform", "config": {"seed": null}}, "bias_initializer": {"class_name": "Zeros", "config": {}}, "kernel_regularizer": null, "bias_regularizer": null, "activity_regularizer": null, "kernel_constraint": null, "bias_constraint": null}, "name": "Densec60d7f69b1d9a12015c0ac9d3a82cecc67fd80269003dd468a5c65420f8108fb64a0ff7a96a86166995b919cad035c76f09fddc6c0fea89b500e9ba5c54b333d_0", "inbound_nodes": [[["Densefac4bdab210ea5283830208beb89c73ae00c361c1c63297dcc632cb11a255e0ba9243ef31004f8cae140d53a6258e4412596fe04f5c7c06f3d8d2aabb47c1b70_0", 0, 0, {}]]]}, {"class_name": "Dense", "config": {"name": "Dense2b6afcd2187670bcf7bb20e66cf8aa83c02ec72b11e3490bb2170a01b03f68a857ee8f2addc7952454732bccfad30b87aa445000e9f4a170e8b75424d8abab0b_0", "trainable": true, "dtype": "float32", "units": 3, "activation": "relu", "use_bias": true, "kernel_initializer": {"class_name": "GlorotUniform", "config": {"seed": null}}, "bias_initializer": {"class_name": "Zeros", "config": {}}, "kernel_regularizer": null, "bias_regularizer": null, "activity_regularizer": null, "kernel_constraint": null, "bias_constraint": null}, "name": "Dense2b6afcd2187670bcf7bb20e66cf8aa83c02ec72b11e3490bb2170a01b03f68a857ee8f2addc7952454732bccfad30b87aa445000e9f4a170e8b75424d8abab0b_0", "inbound_nodes": [[["Densec60d7f69b1d9a12015c0ac9d3a82cecc67fd80269003dd468a5c65420f8108fb64a0ff7a96a86166995b919cad035c76f09fddc6c0fea89b500e9ba5c54b333d_0", 0, 0, {}]]]}, {"class_name": "Dense", "config": {"name": "Dense69f4c4614fe41685ea808dd4c264b22dd0873c50174dfced1ce73fec532e9be1ccabcc35ce9a00cebbcbd301fba6bce71162eb0c613fb216b638e8429cadff00_0", "trainable": true, "dtype": "float32", "units": 3, "activation": "relu", "use_bias": true, "kernel_initializer": {"class_name": "GlorotUniform", "config": {"seed": null}}, "bias_initializer": {"class_name": "Zeros", "config": {}}, "kernel_regularizer": null, "bias_regularizer": null, "activity_regularizer": null, "kernel_constraint": null, "bias_constraint": null}, "name": "Dense69f4c4614fe41685ea808dd4c264b22dd0873c50174dfced1ce73fec532e9be1ccabcc35ce9a00cebbcbd301fba6bce71162eb0c613fb216b638e8429cadff00_0", "inbound_nodes": [[["Dense2b6afcd2187670bcf7bb20e66cf8aa83c02ec72b11e3490bb2170a01b03f68a857ee8f2addc7952454732bccfad30b87aa445000e9f4a170e8b75424d8abab0b_0", 0, 0, {}]]]}, {"class_name": "Dense", "config": {"name": "Densecba6c9b1d2c91c623bd1ae7d133b75f81394dd56f4f1be94373991709ea03823e154c79c7da4124bbd1275d10d2dc151d19e206815c0bd87db8a19ddab49a3a8_0", "trainable": true, "dtype": "float32", "units": 1, "activation": "linear", "use_bias": true, "kernel_initializer": {"class_name": "GlorotUniform", "config": {"seed": null}}, "bias_initializer": {"class_name": "Zeros", "config": {}}, "kernel_regularizer": null, "bias_regularizer": null, "activity_regularizer": null, "kernel_constraint": null, "bias_constraint": null}, "name": "Densecba6c9b1d2c91c623bd1ae7d133b75f81394dd56f4f1be94373991709ea03823e154c79c7da4124bbd1275d10d2dc151d19e206815c0bd87db8a19ddab49a3a8_0", "inbound_nodes": [[["Dense69f4c4614fe41685ea808dd4c264b22dd0873c50174dfced1ce73fec532e9be1ccabcc35ce9a00cebbcbd301fba6bce71162eb0c613fb216b638e8429cadff00_0", 0, 0, {}]]]}], "input_layers": [["input_0", 0, 0]], "output_layers": [["Densecba6c9b1d2c91c623bd1ae7d133b75f81394dd56f4f1be94373991709ea03823e154c79c7da4124bbd1275d10d2dc151d19e206815c0bd87db8a19ddab49a3a8_0", 0, 0]]}
{"name": "model", "layers": [{"class_name": "InputLayer", "config": {"batch_input_shape": [null, 10], "dtype": "float32", "sparse": false, "ragged": false, "name": "input_0"}, "name": "input_0", "inbound_nodes": []}, {"class_name": "Dense", "config": {"name": "Densee711e6e454d8cb8f03d82c408a16fe55d5d9a05951d8e67425d8bdbdb24af4f60ac300450b76e8d3b95ce3d3005a935edd0819304f2d6f9de66d2c1e22591b88_0", "trainable": false, "dtype": "float32", "units": 2, "activation": "relu", "use_bias": true, "kernel_initializer": {"class_name": "GlorotUniform", "config": {"seed": null}}, "bias_initializer": {"class_name": "Zeros", "config": {}}, "kernel_regularizer": null, "bias_regularizer": null, "activity_regularizer": null, "kernel_constraint": null, "bias_constraint": null}, "name": "Densee711e6e454d8cb8f03d82c408a16fe55d5d9a05951d8e67425d8bdbdb24af4f60ac300450b76e8d3b95ce3d3005a935edd0819304f2d6f9de66d2c1e22591b88_0", "inbound_nodes": [[["input_0", 0, 0, {}]]]}, {"class_name": "Dense", "config": {"name": "Densecbbab6e9362401a2c0d0d54043a44d234c560bd11c575df5b9756f555eab3c975968582eabba17242b565e706ed197c348c32d8dda8c985cda62375ab5e32f12_0", "trainable": false, "dtype": "float32", "units": 2, "activation": "relu", "use_bias": true, "kernel_initializer": {"class_name": "GlorotUniform", "config": {"seed": null}}, "bias_initializer": {"class_name": "Zeros", "config": {}}, "kernel_regularizer": null, "bias_regularizer": null, "activity_regularizer": null, "kernel_constraint": null, "bias_constraint": null}, "name": "Densecbbab6e9362401a2c0d0d54043a44d234c560bd11c575df5b9756f555eab3c975968582eabba17242b565e706ed197c348c32d8dda8c985cda62375ab5e32f12_0", "inbound_nodes": [[["Densee711e6e454d8cb8f03d82c408a16fe55d5d9a05951d8e67425d8bdbdb24af4f60ac300450b76e8d3b95ce3d3005a935edd0819304f2d6f9de66d2c1e22591b88_0", 0, 0, {}]]]}, {"class_name": "Dense", "config": {"name": "Dense9eb3f66276bd18ea37c74a6928fb59142b079503552bc372359309587700bd32f3caa01c95027b686322e483b753f7782b610506d513b8ea0b3c3e022798f1ae_0", "trainable": false, "dtype": "float32", "units": 1, "activation": "relu", "use_bias": true, "kernel_initializer": {"class_name": "GlorotUniform", "config": {"seed": null}}, "bias_initializer": {"class_name": "Zeros", "config": {}}, "kernel_regularizer": null, "bias_regularizer": null, "activity_regularizer": null, "kernel_constraint": null, "bias_constraint": null}, "name": "Dense9eb3f66276bd18ea37c74a6928fb59142b079503552bc372359309587700bd32f3caa01c95027b686322e483b753f7782b610506d513b8ea0b3c3e022798f1ae_0", "inbound_nodes": [[["Densecbbab6e9362401a2c0d0d54043a44d234c560bd11c575df5b9756f555eab3c975968582eabba17242b565e706ed197c348c32d8dda8c985cda62375ab5e32f12_0", 0, 0, {}]]]}, {"class_name": "Dense", "config": {"name": "Densef63b20934694e6dbe2a3ac7ad97a863d396c57248f42e707a1a0fd540c84492198d748b9448c246d95e7a39d8b0494d9df3f89220c9a4754974fe7fb403f2f34_0", "trainable": false, "dtype": "float32", "units": 3, "activation": "relu", "use_bias": true, "kernel_initializer": {"class_name": "GlorotUniform", "config": {"seed": null}}, "bias_initializer": {"class_name": "Zeros", "config": {}}, "kernel_regularizer": null, "bias_regularizer": null, "activity_regularizer": null, "kernel_constraint": null, "bias_constraint": null}, "name": "Densef63b20934694e6dbe2a3ac7ad97a863d396c57248f42e707a1a0fd540c84492198d748b9448c246d95e7a39d8b0494d9df3f89220c9a4754974fe7fb403f2f34_0", "inbound_nodes": [[["Dense9eb3f66276bd18ea37c74a6928fb59142b079503552bc372359309587700bd32f3caa01c95027b686322e483b753f7782b610506d513b8ea0b3c3e022798f1ae_0", 0, 0, {}]]]}, {"class_name": "Dense", "config": {"name": "Dense0d1b6f17b89db7f1faf2a2966d0bf43cd626854874075511a071a32abfc9c7d10330b251c2601cc4bc05719f3e7759120ff640bed4f99125e681f8c470e3755c_0", "trainable": false, "dtype": "float32", "units": 4, "activation": "relu", "use_bias": true, "kernel_initializer": {"class_name": "GlorotUniform", "config": {"seed": null}}, "bias_initializer": {"class_name": "Zeros", "config": {}}, "kernel_regularizer": null, "bias_regularizer": null, "activity_regularizer": null, "kernel_constraint": null, "bias_constraint": null}, "name": "Dense0d1b6f17b89db7f1faf2a2966d0bf43cd626854874075511a071a32abfc9c7d10330b251c2601cc4bc05719f3e7759120ff640bed4f99125e681f8c470e3755c_0", "inbound_nodes": [[["Densef63b20934694e6dbe2a3ac7ad97a863d396c57248f42e707a1a0fd540c84492198d748b9448c246d95e7a39d8b0494d9df3f89220c9a4754974fe7fb403f2f34_0", 0, 0, {}]]]}, {"class_name": "Dense", "config": {"name": "Densecff99fd4040b7061f0804dc3212a413f2f28a9641927982cca6c0a33bd4f10044d2baaeb8a3d208adb392e735e0048507ce62430099bb8dedc5b34c7f2ea9e34_0", "trainable": true, "dtype": "float32", "units": 1, "activation": "relu", "use_bias": true, "kernel_initializer": {"class_name": "GlorotUniform", "config": {"seed": null}}, "bias_initializer": {"class_name": "Zeros", "config": {}}, "kernel_regularizer": null, "bias_regularizer": null, "activity_regularizer": null, "kernel_constraint": null, "bias_constraint": null}, "name": "Densecff99fd4040b7061f0804dc3212a413f2f28a9641927982cca6c0a33bd4f10044d2baaeb8a3d208adb392e735e0048507ce62430099bb8dedc5b34c7f2ea9e34_0", "inbound_nodes": [[["Dense0d1b6f17b89db7f1faf2a2966d0bf43cd626854874075511a071a32abfc9c7d10330b251c2601cc4bc05719f3e7759120ff640bed4f99125e681f8c470e3755c_0", 0, 0, {}]]]}, {"class_name": "Dense", "config": {"name": "Densec692c4bdbc7f0efa7fc617cd9a5765df4a11f636b81e159be8e65f151e237c46e440274bc6c7ece8db49cbfbe22a6af827069f3f8cf6ca27ffbc0f3bfc468f18_0", "trainable": true, "dtype": "float32", "units": 4, "activation": "relu", "use_bias": true, "kernel_initializer": {"class_name": "GlorotUniform", "config": {"seed": null}}, "bias_initializer": {"class_name": "Zeros", "config": {}}, "kernel_regularizer": null, "bias_regularizer": null, "activity_regularizer": null, "kernel_constraint": null, "bias_constraint": null}, "name": "Densec692c4bdbc7f0efa7fc617cd9a5765df4a11f636b81e159be8e65f151e237c46e440274bc6c7ece8db49cbfbe22a6af827069f3f8cf6ca27ffbc0f3bfc468f18_0", "inbound_nodes": [[["Densecff99fd4040b7061f0804dc3212a413f2f28a9641927982cca6c0a33bd4f10044d2baaeb8a3d208adb392e735e0048507ce62430099bb8dedc5b34c7f2ea9e34_0", 0, 0, {}]]]}, {"class_name": "Dense", "config": {"name": "Densec8a2ce3c3d419d5398c2b7f8c8ca1646e95036696852c9df72b02d3a338bcda8788503d1b8d846cd6c9039095497c53f158ca7da776b7f5b56add71b1dfc2acf_0", "trainable": true, "dtype": "float32", "units": 1, "activation": "relu", "use_bias": true, "kernel_initializer": {"class_name": "GlorotUniform", "config": {"seed": null}}, "bias_initializer": {"class_name": "Zeros", "config": {}}, "kernel_regularizer": null, "bias_regularizer": null, "activity_regularizer": null, "kernel_constraint": null, "bias_constraint": null}, "name": "Densec8a2ce3c3d419d5398c2b7f8c8ca1646e95036696852c9df72b02d3a338bcda8788503d1b8d846cd6c9039095497c53f158ca7da776b7f5b56add71b1dfc2acf_0", "inbound_nodes": [[["Densec692c4bdbc7f0efa7fc617cd9a5765df4a11f636b81e159be8e65f151e237c46e440274bc6c7ece8db49cbfbe22a6af827069f3f8cf6ca27ffbc0f3bfc468f18_0", 0, 0, {}]]]}, {"class_name": "Dense", "config": {"name": "Denseeb6fa1a7167ca64658a8d9bed4ff3399a9d1fd5e3f7154a467444c8de35d9be23de9f584379022c95ec3fc99350b191603faffcafeac6c71d4d081269f238a1a_0", "trainable": true, "dtype": "float32", "units": 2, "activation": "relu", "use_bias": true, "kernel_initializer": {"class_name": "GlorotUniform", "config": {"seed": null}}, "bias_initializer": {"class_name": "Zeros", "config": {}}, "kernel_regularizer": null, "bias_regularizer": null, "activity_regularizer": null, "kernel_constraint": null, "bias_constraint": null}, "name": "Denseeb6fa1a7167ca64658a8d9bed4ff3399a9d1fd5e3f7154a467444c8de35d9be23de9f584379022c95ec3fc99350b191603faffcafeac6c71d4d081269f238a1a_0", "inbound_nodes": [[["Densec8a2ce3c3d419d5398c2b7f8c8ca1646e95036696852c9df72b02d3a338bcda8788503d1b8d846cd6c9039095497c53f158ca7da776b7f5b56add71b1dfc2acf_0", 0, 0, {}]]]}, {"class_name": "Dense", "config": {"name": "Denseeb5b8536503e8b8cc32414403698f69e2c21be3286519d1aa962895237f89e8082d51fab4d2777243af2bce6a1297145c1c582d7967ffcb06901a7e883a2ced4_0", "trainable": true, "dtype": "float32", "units": 1, "activation": "linear", "use_bias": true, "kernel_initializer": {"class_name": "GlorotUniform", "config": {"seed": null}}, "bias_initializer": {"class_name": "Zeros", "config": {}}, "kernel_regularizer": null, "bias_regularizer": null, "activity_regularizer": null, "kernel_constraint": null, "bias_constraint": null}, "name": "Denseeb5b8536503e8b8cc32414403698f69e2c21be3286519d1aa962895237f89e8082d51fab4d2777243af2bce6a1297145c1c582d7967ffcb06901a7e883a2ced4_0", "inbound_nodes": [[["Denseeb6fa1a7167ca64658a8d9bed4ff3399a9d1fd5e3f7154a467444c8de35d9be23de9f584379022c95ec3fc99350b191603faffcafeac6c71d4d081269f238a1a_0", 0, 0, {}]]]}], "input_layers": [["input_0", 0, 0]], "output_layers": [["Denseeb5b8536503e8b8cc32414403698f69e2c21be3286519d1aa962895237f89e8082d51fab4d2777243af2bce6a1297145c1c582d7967ffcb06901a7e883a2ced4_0", 0, 0]]}
{"name": "model", "layers": [{"class_name": "InputLayer", "config": {"batch_input_shape": [null, 10], "dtype": "float32", "sparse": false, "ragged": false, "name": "input_0"}, "name": "input_0", "inbound_nodes": []}, {"class_name": "Dense", "config": {"name": "Densebe2612bdfe58306ea65bbac462c5ecf7c1df641d430b05e5f6720631359a5532b5a9e4b7ec576fdf07c3f51119d3c98d93860ea343fad32c936cb6cce92ce715_0", "trainable": false, "dtype": "float32", "units": 3, "activation": "relu", "use_bias": true, "kernel_initializer": {"class_name": "GlorotUniform", "config": {"seed": null}}, "bias_initializer": {"class_name": "Zeros", "config": {}}, "kernel_regularizer": null, "bias_regularizer": null, "activity_regularizer": null, "kernel_constraint": null, "bias_constraint": null}, "name": "Densebe2612bdfe58306ea65bbac462c5ecf7c1df641d430b05e5f6720631359a5532b5a9e4b7ec576fdf07c3f51119d3c98d93860ea343fad32c936cb6cce92ce715_0", "inbound_nodes": [[["input_0", 0, 0, {}]]]}, {"class_name": "Dense", "config": {"name": "Dense1d0db118b2821ca15ad1c0563b6af479a79272d945080b71dcf113b4303ec1d78899073afe7c8ebcbdd3d96f118466f00578739786817ed6bcd12221b65c4453_0", "trainable": false, "dtype": "float32", "units": 1, "activation": "relu", "use_bias": true, "kernel_initializer": {"class_name": "GlorotUniform", "config": {"seed": null}}, "bias_initializer": {"class_name": "Zeros", "config": {}}, "kernel_regularizer": null, "bias_regularizer": null, "activity_regularizer": null, "kernel_constraint": null, "bias_constraint": null}, "name": "Dense1d0db118b2821ca15ad1c0563b6af479a79272d945080b71dcf113b4303ec1d78899073afe7c8ebcbdd3d96f118466f00578739786817ed6bcd12221b65c4453_0", "inbound_nodes": [[["Densebe2612bdfe58306ea65bbac462c5ecf7c1df641d430b05e5f6720631359a5532b5a9e4b7ec576fdf07c3f51119d3c98d93860ea343fad32c936cb6cce92ce715_0", 0, 0, {}]]]}, {"class_name": "Dense", "config": {"name": "Densed858a4cc0d5c675b09f94a70290697d912dcd009ced311c26ac60ce52e1cb631b186526d9c1c38633b1bec7d898be1c4bbeb1eb698632898fbd177c942b157c4_0", "trainable": false, "dtype": "float32", "units": 2, "activation": "relu", "use_bias": true, "kernel_initializer": {"class_name": "GlorotUniform", "config": {"seed": null}}, "bias_initializer": {"class_name": "Zeros", "config": {}}, "kernel_regularizer": null, "bias_regularizer": null, "activity_regularizer": null, "kernel_constraint": null, "bias_constraint": null}, "name": "Densed858a4cc0d5c675b09f94a70290697d912dcd009ced311c26ac60ce52e1cb631b186526d9c1c38633b1bec7d898be1c4bbeb1eb698632898fbd177c942b157c4_0", "inbound_nodes": [[["Dense1d0db118b2821ca15ad1c0563b6af479a79272d945080b71dcf113b4303ec1d78899073afe7c8ebcbdd3d96f118466f00578739786817ed6bcd12221b65c4453_0", 0, 0, {}]]]}, {"class_name": "Dense", "config": {"name": "Densebd0efdcf2c93d2609bb76b7b3f0aea493045edf4bc525746dbd3f178da5392441f47a49657bfa749a3f0a9fedf48429518b2ba37a2ec27f026bde17dd978053c_0", "trainable": false, "dtype": "float32", "units": 4, "activation": "relu", "use_bias": true, "kernel_initializer": {"class_name": "GlorotUniform", "config": {"seed": null}}, "bias_initializer": {"class_name": "Zeros", "config": {}}, "kernel_regularizer": null, "bias_regularizer": null, "activity_regularizer": null, "kernel_constraint": null, "bias_constraint": null}, "name": "Densebd0efdcf2c93d2609bb76b7b3f0aea493045edf4bc525746dbd3f178da5392441f47a49657bfa749a3f0a9fedf48429518b2ba37a2ec27f026bde17dd978053c_0", "inbound_nodes": [[["Densed858a4cc0d5c675b09f94a70290697d912dcd009ced311c26ac60ce52e1cb631b186526d9c1c38633b1bec7d898be1c4bbeb1eb698632898fbd177c942b157c4_0", 0, 0, {}]]]}, {"class_name": "Dense", "config": {"name": "Dense37440325285effd734fa0ec1614d4fb71fbdee89f5912b4cc096c767499492b47675bfa052cb4f077e4758b58700e8ad1f0b4e36bdc1378f75feb9dd7130c80e_0", "trainable": false, "dtype": "float32", "units": 1, "activation": "relu", "use_bias": true, "kernel_initializer": {"class_name": "GlorotUniform", "config": {"seed": null}}, "bias_initializer": {"class_name": "Zeros", "config": {}}, "kernel_regularizer": null, "bias_regularizer": null, "activity_regularizer": null, "kernel_constraint": null, "bias_constraint": null}, "name": "Dense37440325285effd734fa0ec1614d4fb71fbdee89f5912b4cc096c767499492b47675bfa052cb4f077e4758b58700e8ad1f0b4e36bdc1378f75feb9dd7130c80e_0", "inbound_nodes": [[["Densebd0efdcf2c93d2609bb76b7b3f0aea493045edf4bc525746dbd3f178da5392441f47a49657bfa749a3f0a9fedf48429518b2ba37a2ec27f026bde17dd978053c_0", 0, 0, {}]]]}, {"class_name": "Dense", "config": {"name": "Denseacbef2e24da2b32423c6c80a7c1c147e55c2f34273116f809456345cf3923ee297183fa3189dd5e7818939cde6b03cc03c013565fba3aa6d4bf40657b9b7253f_0", "trainable": false, "dtype": "float32", "units": 2, "activation": "relu", "use_bias": true, "kernel_initializer": {"class_name": "GlorotUniform", "config": {"seed": null}}, "bias_initializer": {"class_name": "Zeros", "config": {}}, "kernel_regularizer": null, "bias_regularizer": null, "activity_regularizer": null, "kernel_constraint": null, "bias_constraint": null}, "name": "Denseacbef2e24da2b32423c6c80a7c1c147e55c2f34273116f809456345cf3923ee297183fa3189dd5e7818939cde6b03cc03c013565fba3aa6d4bf40657b9b7253f_0", "inbound_nodes": [[["Dense37440325285effd734fa0ec1614d4fb71fbdee89f5912b4cc096c767499492b47675bfa052cb4f077e4758b58700e8ad1f0b4e36bdc1378f75feb9dd7130c80e_0", 0, 0, {}]]]}, {"class_name": "Dense", "config": {"name": "Denseb0f14c9c98f586a85bdc3122da232c2aaae131c70228c927b39fdfe892f75c601003039cc06a9848dc4bd4e18eb4698bbdb873020fc901f03f6a1009f9eca879_0", "trainable": false, "dtype": "float32", "units": 3, "activation": "relu", "use_bias": true, "kernel_initializer": {"class_name": "GlorotUniform", "config": {"seed": null}}, "bias_initializer": {"class_name": "Zeros", "config": {}}, "kernel_regularizer": null, "bias_regularizer": null, "activity_regularizer": null, "kernel_constraint": null, "bias_constraint": null}, "name": "Denseb0f14c9c98f586a85bdc3122da232c2aaae131c70228c927b39fdfe892f75c601003039cc06a9848dc4bd4e18eb4698bbdb873020fc901f03f6a1009f9eca879_0", "inbound_nodes": [[["Denseacbef2e24da2b32423c6c80a7c1c147e55c2f34273116f809456345cf3923ee297183fa3189dd5e7818939cde6b03cc03c013565fba3aa6d4bf40657b9b7253f_0", 0, 0, {}]]]}, {"class_name": "Dense", "config": {"name": "Dense1f9ca4779d38e33aeb1032346eaac320cf4b9d2df46288362b4547bad5e664a1539bd2cd1806deb93f8855ee63221cb31328ae0f3e4dddb7fc3135a7f6b17cfc_0", "trainable": false, "dtype": "float32", "units": 1, "activation": "linear", "use_bias": true, "kernel_initializer": {"class_name": "GlorotUniform", "config": {"seed": null}}, "bias_initializer": {"class_name": "Zeros", "config": {}}, "kernel_regularizer": null, "bias_regularizer": null, "activity_regularizer": null, "kernel_constraint": null, "bias_constraint": null}, "name": "Dense1f9ca4779d38e33aeb1032346eaac320cf4b9d2df46288362b4547bad5e664a1539bd2cd1806deb93f8855ee63221cb31328ae0f3e4dddb7fc3135a7f6b17cfc_0", "inbound_nodes": [[["Denseb0f14c9c98f586a85bdc3122da232c2aaae131c70228c927b39fdfe892f75c601003039cc06a9848dc4bd4e18eb4698bbdb873020fc901f03f6a1009f9eca879_0", 0, 0, {}]]]}], "input_layers": [["input_0", 0, 0]], "output_layers": [["Dense1f9ca4779d38e33aeb1032346eaac320cf4b9d2df46288362b4547bad5e664a1539bd2cd1806deb93f8855ee63221cb31328ae0f3e4dddb7fc3135a7f6b17cfc_0", 0, 0]]}
{"name": "model", "layers": [{"class_name": "InputLayer", "config": {"batch_input_shape": [null, 10], "dtype": "float32", "sparse": false, "ragged": false, "name": "input_0"}, "name": "input_0", "inbound_nodes": []}, {"class_name": "Dense", "config": {"name": "Densebe2612bdfe58306ea65bbac462c5ecf7c1df641d430b05e5f6720631359a5532b5a9e4b7ec576fdf07c3f51119d3c98d93860ea343fad32c936cb6cce92ce715_0", "trainable": false, "dtype": "float32", "units": 3, "activation": "relu", "use_bias": true, "kernel_initializer": {"class_name": "GlorotUniform", "config": {"seed": null}}, "bias_initializer": {"class_name": "Zeros", "config": {}}, "kernel_regularizer": null, "bias_regularizer": null, "activity_regularizer": null, "kernel_constraint": null, "bias_constraint": null}, "name": "Densebe2612bdfe58306ea65bbac462c5ecf7c1df641d430b05e5f6720631359a5532b5a9e4b7ec576fdf07c3f51119d3c98d93860ea343fad32c936cb6cce92ce715_0", "inbound_nodes": [[["input_0", 0, 0, {}]]]}, {"class_name": "Dense", "config": {"name": "Dense1d0db118b2821ca15ad1c0563b6af479a79272d945080b71dcf113b4303ec1d78899073afe7c8ebcbdd3d96f118466f00578739786817ed6bcd12221b65c4453_0", "trainable": false, "dtype": "float32", "units": 1, "activation": "relu", "use_bias": true, "kernel_initializer": {"class_name": "GlorotUniform", "config": {"seed": null}}, "bias_initializer": {"class_name": "Zeros", "config": {}}, "kernel_regularizer": null, "bias_regularizer": null, "activity_regularizer": null, "kernel_constraint": null, "bias_constraint": null}, "name": "Dense1d0db118b2821ca15ad1c0563b6af479a79272d945080b71dcf113b4303ec1d78899073afe7c8ebcbdd3d96f118466f00578739786817ed6bcd12221b65c4453_0", "inbound_nodes": [[["Densebe2612bdfe58306ea65bbac462c5ecf7c1df641d430b05e5f6720631359a5532b5a9e4b7ec576fdf07c3f51119d3c98d93860ea343fad32c936cb6cce92ce715_0", 0, 0, {}]]]}, {"class_name": "Dense", "config": {"name": "Densed858a4cc0d5c675b09f94a70290697d912dcd009ced311c26ac60ce52e1cb631b186526d9c1c38633b1bec7d898be1c4bbeb1eb698632898fbd177c942b157c4_0", "trainable": false, "dtype": "float32", "units": 2, "activation": "relu", "use_bias": true, "kernel_initializer": {"class_name": "GlorotUniform", "config": {"seed": null}}, "bias_initializer": {"class_name": "Zeros", "config": {}}, "kernel_regularizer": null, "bias_regularizer": null, "activity_regularizer": null, "kernel_constraint": null, "bias_constraint": null}, "name": "Densed858a4cc0d5c675b09f94a70290697d912dcd009ced311c26ac60ce52e1cb631b186526d9c1c38633b1bec7d898be1c4bbeb1eb698632898fbd177c942b157c4_0", "inbound_nodes": [[["Dense1d0db118b2821ca15ad1c0563b6af479a79272d945080b71dcf113b4303ec1d78899073afe7c8ebcbdd3d96f118466f00578739786817ed6bcd12221b65c4453_0", 0, 0, {}]]]}, {"class_name": "Dense", "config": {"name": "Dense09e87d7d99a6a77c128849b6c9887cc397cc1fd7ee2c20859255ea5dbdec1715e0f13e2a7d7f10b86496de1d7238ce48a6e6871c5f8f67b244556e097b840ee4_0", "trainable": true, "dtype": "float32", "units": 1, "activation": "relu", "use_bias": true, "kernel_initializer": {"class_name": "GlorotUniform", "config": {"seed": null}}, "bias_initializer": {"class_name": "Zeros", "config": {}}, "kernel_regularizer": null, "bias_regularizer": null, "activity_regularizer": null, "kernel_constraint": null, "bias_constraint": null}, "name": "Dense09e87d7d99a6a77c128849b6c9887cc397cc1fd7ee2c20859255ea5dbdec1715e0f13e2a7d7f10b86496de1d7238ce48a6e6871c5f8f67b244556e097b840ee4_0", "inbound_nodes": [[["Densed858a4cc0d5c675b09f94a70290697d912dcd009ced311c26ac60ce52e1cb631b186526d9c1c38633b1bec7d898be1c4bbeb1eb698632898fbd177c942b157c4_0", 0, 0, {}]]]}, {"class_name": "Dense", "config": {"name": "Dense2b12d7d0c20fcbad4f61fd07013e77ea8e922bd04a7250dc60c94b566841830c79db27c5994defbe83db621a1051918c6bcb99445eb37cf51b833f438ccef13d_0", "trainable": true, "dtype": "float32", "units": 1, "activation": "relu", "use_bias": true, "kernel_initializer": {"class_name": "GlorotUniform", "config": {"seed": null}}, "bias_initializer": {"class_name": "Zeros", "config": {}}, "kernel_regularizer": null, "bias_regularizer": null, "activity_regularizer": null, "kernel_constraint": null, "bias_constraint": null}, "name": "Dense2b12d7d0c20fcbad4f61fd07013e77ea8e922bd04a7250dc60c94b566841830c79db27c5994defbe83db621a1051918c6bcb99445eb37cf51b833f438ccef13d_0", "inbound_nodes": [[["Dense09e87d7d99a6a77c128849b6c9887cc397cc1fd7ee2c20859255ea5dbdec1715e0f13e2a7d7f10b86496de1d7238ce48a6e6871c5f8f67b244556e097b840ee4_0", 0, 0, {}]]]}, {"class_name": "Dense", "config": {"name": "Densef73b5a033f9097e34a407dcdb9cb4c2fa935aba10eea83caeb62c1865e3f397fb627a447573a4620bcf63de7531e722ab0c74a3e998428497545eec299961f7a_0", "trainable": true, "dtype": "float32", "units": 3, "activation": "relu", "use_bias": true, "kernel_initializer": {"class_name": "GlorotUniform", "config": {"seed": null}}, "bias_initializer": {"class_name": "Zeros", "config": {}}, "kernel_regularizer": null, "bias_regularizer": null, "activity_regularizer": null, "kernel_constraint": null, "bias_constraint": null}, "name": "Densef73b5a033f9097e34a407dcdb9cb4c2fa935aba10eea83caeb62c1865e3f397fb627a447573a4620bcf63de7531e722ab0c74a3e998428497545eec299961f7a_0", "inbound_nodes": [[["Dense2b12d7d0c20fcbad4f61fd07013e77ea8e922bd04a7250dc60c94b566841830c79db27c5994defbe83db621a1051918c6bcb99445eb37cf51b833f438ccef13d_0", 0, 0, {}]]]}, {"class_name": "Dense", "config": {"name": "Densea7be0f8a658542cda6150113922412a29ae072d19714c1749eeb23111144cc4d392722402363f6e0d6a4b9940453510ed9c9c4acaedc41bffb2beaf8c0f1c307_0", "trainable": true, "dtype": "float32", "units": 3, "activation": "relu", "use_bias": true, "kernel_initializer": {"class_name": "GlorotUniform", "config": {"seed": null}}, "bias_initializer": {"class_name": "Zeros", "config": {}}, "kernel_regularizer": null, "bias_regularizer": null, "activity_regularizer": null, "kernel_constraint": null, "bias_constraint": null}, "name": "Densea7be0f8a658542cda6150113922412a29ae072d19714c1749eeb23111144cc4d392722402363f6e0d6a4b9940453510ed9c9c4acaedc41bffb2beaf8c0f1c307_0", "inbound_nodes": [[["Densef73b5a033f9097e34a407dcdb9cb4c2fa935aba10eea83caeb62c1865e3f397fb627a447573a4620bcf63de7531e722ab0c74a3e998428497545eec299961f7a_0", 0, 0, {}]]]}, {"class_name": "Dense", "config": {"name": "Densef57c665fe5c5dd6861bb0f3a4df2a390675999cb6271fba4aa31a51d6f7861c86235397a9544283d1b7dfc995b568f6430dd5e104be1132bc7d0c3be5292b7e8_0", "trainable": true, "dtype": "float32", "units": 2, "activation": "relu", "use_bias": true, "kernel_initializer": {"class_name": "GlorotUniform", "config": {"seed": null}}, "bias_initializer": {"class_name": "Zeros", "config": {}}, "kernel_regularizer": null, "bias_regularizer": null, "activity_regularizer": null, "kernel_constraint": null, "bias_constraint": null}, "name": "Densef57c665fe5c5dd6861bb0f3a4df2a390675999cb6271fba4aa31a51d6f7861c86235397a9544283d1b7dfc995b568f6430dd5e104be1132bc7d0c3be5292b7e8_0", "inbound_nodes": [[["Densea7be0f8a658542cda6150113922412a29ae072d19714c1749eeb23111144cc4d392722402363f6e0d6a4b9940453510ed9c9c4acaedc41bffb2beaf8c0f1c307_0", 0, 0, {}]]]}, {"class_name": "Dense", "config": {"name": "Densef2ee7a4f738cafc585654123a98771178cc75d92ea8ff3c61566539440878d60ff2509de6bc3f94e2d57a1c8c25d8edb15847db01e71d943122c9478a8ea3c29_0", "trainable": true, "dtype": "float32", "units": 1, "activation": "linear", "use_bias": true, "kernel_initializer": {"class_name": "GlorotUniform", "config": {"seed": null}}, "bias_initializer": {"class_name": "Zeros", "config": {}}, "kernel_regularizer": null, "bias_regularizer": null, "activity_regularizer": null, "kernel_constraint": null, "bias_constraint": null}, "name": "Densef2ee7a4f738cafc585654123a98771178cc75d92ea8ff3c61566539440878d60ff2509de6bc3f94e2d57a1c8c25d8edb15847db01e71d943122c9478a8ea3c29_0", "inbound_nodes": [[["Densef57c665fe5c5dd6861bb0f3a4df2a390675999cb6271fba4aa31a51d6f7861c86235397a9544283d1b7dfc995b568f6430dd5e104be1132bc7d0c3be5292b7e8_0", 0, 0, {}]]]}], "input_layers": [["input_0", 0, 0]], "output_layers": [["Densef2ee7a4f738cafc585654123a98771178cc75d92ea8ff3c61566539440878d60ff2509de6bc3f94e2d57a1c8c25d8edb15847db01e71d943122c9478a8ea3c29_0", 0, 0]]}
{"name": "model", "layers": [{"class_name": "InputLayer", "config": {"batch_input_shape": [null, 10], "dtype": "float32", "sparse": false, "ragged": false, "name": "input_0"}, "name": "input_0", "inbound_nodes": []}, {"class_name": "Dense", "config": {"name": "Dense52c2fd52bd0911375d0f70310bc27ee458b90f7330be3ec8c9b347f785f87006ec01d97fb1b2bd63c85af38321c93f1471c7b2ed3a039e1f8c89e26a9130674a_0", "trainable": false, "dtype": "float32", "units": 1, "activation": "relu", "use_bias": true, "kernel_initializer": {"class_name": "GlorotUniform", "config": {"seed": null}}, "bias_initializer": {"class_name": "Zeros", "config": {}}, "kernel_regularizer": null, "bias_regularizer": null, "activity_regularizer": null, "kernel_constraint": null, "bias_constraint": null}, "name": "Dense52c2fd52bd0911375d0f70310bc27ee458b90f7330be3ec8c9b347f785f87006ec01d97fb1b2bd63c85af38321c93f1471c7b2ed3a039e1f8c89e26a9130674a_0", "inbound_nodes": [[["input_0", 0, 0, {}]]]}, {"class_name": "Dense", "config": {"name": "Dense9410f00232a9b5b60e49ccbadfd50742b585ccbf00643a7ae0055e131b1fd10dfe8cfade367fd90aba8b2313501cc942448a5a0a935f33add71ce6ddf2a5482d_0", "trainable": false, "dtype": "float32", "units": 1, "activation": "relu", "use_bias": true, "kernel_initializer": {"class_name": "GlorotUniform", "config": {"seed": null}}, "bias_initializer": {"class_name": "Zeros", "config": {}}, "kernel_regularizer": null, "bias_regularizer": null, "activity_regularizer": null, "kernel_constraint": null, "bias_constraint": null}, "name": "Dense9410f00232a9b5b60e49ccbadfd50742b585ccbf00643a7ae0055e131b1fd10dfe8cfade367fd90aba8b2313501cc942448a5a0a935f33add71ce6ddf2a5482d_0", "inbound_nodes": [[["Dense52c2fd52bd0911375d0f70310bc27ee458b90f7330be3ec8c9b347f785f87006ec01d97fb1b2bd63c85af38321c93f1471c7b2ed3a039e1f8c89e26a9130674a_0", 0, 0, {}]]]}, {"class_name": "Dense", "config": {"name": "Dense18746b2fd8e07f23bf828753f4e7d3a95b30fc8c4fd2bdf60230bca10de26c3510557f0f864c42275778e82cf255cc17d6da54500e0ccf5a37ec1775f18e7903_0", "trainable": false, "dtype": "float32", "units": 3, "activation": "relu", "use_bias": true, "kernel_initializer": {"class_name": "GlorotUniform", "config": {"seed": null}}, "bias_initializer": {"class_name": "Zeros", "config": {}}, "kernel_regularizer": null, "bias_regularizer": null, "activity_regularizer": null, "kernel_constraint": null, "bias_constraint": null}, "name": "Dense18746b2fd8e07f23bf828753f4e7d3a95b30fc8c4fd2bdf60230bca10de26c3510557f0f864c42275778e82cf255cc17d6da54500e0ccf5a37ec1775f18e7903_0", "inbound_nodes": [[["Dense9410f00232a9b5b60e49ccbadfd50742b585ccbf00643a7ae0055e131b1fd10dfe8cfade367fd90aba8b2313501cc942448a5a0a935f33add71ce6ddf2a5482d_0", 0, 0, {}]]]}, {"class_name": "Dense", "config": {"name": "Denseee909befeabb010671ba2b99b81f77b60748eeafccddc19d3f5a04ba7e4dc645125508c74064869284220f1bec1004354602b1116af8085641de752dbf317b5f_0", "trainable": true, "dtype": "float32", "units": 2, "activation": "relu", "use_bias": true, "kernel_initializer": {"class_name": "GlorotUniform", "config": {"seed": null}}, "bias_initializer": {"class_name": "Zeros", "config": {}}, "kernel_regularizer": null, "bias_regularizer": null, "activity_regularizer": null, "kernel_constraint": null, "bias_constraint": null}, "name": "Denseee909befeabb010671ba2b99b81f77b60748eeafccddc19d3f5a04ba7e4dc645125508c74064869284220f1bec1004354602b1116af8085641de752dbf317b5f_0", "inbound_nodes": [[["Dense18746b2fd8e07f23bf828753f4e7d3a95b30fc8c4fd2bdf60230bca10de26c3510557f0f864c42275778e82cf255cc17d6da54500e0ccf5a37ec1775f18e7903_0", 0, 0, {}]]]}, {"class_name": "Dense", "config": {"name": "Denseb56db3c76be587ae12bf536eb44b348a84533076a5e58172c1e36e897b1d58ceed523ad0a6b01094c7499e70064bd9226cba827f49c75cb335bb77db4c2f8a15_0", "trainable": true, "dtype": "float32", "units": 2, "activation": "relu", "use_bias": true, "kernel_initializer": {"class_name": "GlorotUniform", "config": {"seed": null}}, "bias_initializer": {"class_name": "Zeros", "config": {}}, "kernel_regularizer": null, "bias_regularizer": null, "activity_regularizer": null, "kernel_constraint": null, "bias_constraint": null}, "name": "Denseb56db3c76be587ae12bf536eb44b348a84533076a5e58172c1e36e897b1d58ceed523ad0a6b01094c7499e70064bd9226cba827f49c75cb335bb77db4c2f8a15_0", "inbound_nodes": [[["Denseee909befeabb010671ba2b99b81f77b60748eeafccddc19d3f5a04ba7e4dc645125508c74064869284220f1bec1004354602b1116af8085641de752dbf317b5f_0", 0, 0, {}]]]}, {"class_name": "Dense", "config": {"name": "Dense5c737884037b226797ed0f815e5e18330cf7427bf24d2319085679ca622b8045cdcd07155482253fda73bcfa3a49e3f5eacf5db772c1c039940613b6612a86f6_0", "trainable": true, "dtype": "float32", "units": 4, "activation": "relu", "use_bias": true, "kernel_initializer": {"class_name": "GlorotUniform", "config": {"seed": null}}, "bias_initializer": {"class_name": "Zeros", "config": {}}, "kernel_regularizer": null, "bias_regularizer": null, "activity_regularizer": null, "kernel_constraint": null, "bias_constraint": null}, "name": "Dense5c737884037b226797ed0f815e5e18330cf7427bf24d2319085679ca622b8045cdcd07155482253fda73bcfa3a49e3f5eacf5db772c1c039940613b6612a86f6_0", "inbound_nodes": [[["Denseb56db3c76be587ae12bf536eb44b348a84533076a5e58172c1e36e897b1d58ceed523ad0a6b01094c7499e70064bd9226cba827f49c75cb335bb77db4c2f8a15_0", 0, 0, {}]]]}, {"class_name": "Dense", "config": {"name": "Densef032f118555f45a07a3be19e7c794e93e46477ec6584bfaaa72f0c65798fc29cc7418085981df8ff88006decf55ce0f0194a7e20879116b34f0fdded61e1ec98_0", "trainable": true, "dtype": "float32", "units": 4, "activation": "relu", "use_bias": true, "kernel_initializer": {"class_name": "GlorotUniform", "config": {"seed": null}}, "bias_initializer": {"class_name": "Zeros", "config": {}}, "kernel_regularizer": null, "bias_regularizer": null, "activity_regularizer": null, "kernel_constraint": null, "bias_constraint": null}, "name": "Densef032f118555f45a07a3be19e7c794e93e46477ec6584bfaaa72f0c65798fc29cc7418085981df8ff88006decf55ce0f0194a7e20879116b34f0fdded61e1ec98_0", "inbound_nodes": [[["Dense5c737884037b226797ed0f815e5e18330cf7427bf24d2319085679ca622b8045cdcd07155482253fda73bcfa3a49e3f5eacf5db772c1c039940613b6612a86f6_0", 0, 0, {}]]]}, {"class_name": "Dense", "config": {"name": "Dense8af40cce1cc3de8f9b2e49a54fe7a18e5867b98814293b8c320a2d6c3d14c4913bdfbb4bd7c5912d1d50f8af678688bf54f36b0e313ccf8c8619721f11818303_0", "trainable": true, "dtype": "float32", "units": 3, "activation": "relu", "use_bias": true, "kernel_initializer": {"class_name": "GlorotUniform", "config": {"seed": null}}, "bias_initializer": {"class_name": "Zeros", "config": {}}, "kernel_regularizer": null, "bias_regularizer": null, "activity_regularizer": null, "kernel_constraint": null, "bias_constraint": null}, "name": "Dense8af40cce1cc3de8f9b2e49a54fe7a18e5867b98814293b8c320a2d6c3d14c4913bdfbb4bd7c5912d1d50f8af678688bf54f36b0e313ccf8c8619721f11818303_0", "inbound_nodes": [[["Densef032f118555f45a07a3be19e7c794e93e46477ec6584bfaaa72f0c65798fc29cc7418085981df8ff88006decf55ce0f0194a7e20879116b34f0fdded61e1ec98_0", 0, 0, {}]]]}, {"class_name": "Dense", "config": {"name": "Dense38b74a91d89b3d63bd58065ba25368f0abbb60778a04601ead141c78da0b4965f6d9f2592e64df7109f05218da13b625c67e15fbef9210240bb33ba86bd79bdb_0", "trainable": true, "dtype": "float32", "units": 1, "activation": "linear", "use_bias": true, "kernel_initializer": {"class_name": "GlorotUniform", "config": {"seed": null}}, "bias_initializer": {"class_name": "Zeros", "config": {}}, "kernel_regularizer": null, "bias_regularizer": null, "activity_regularizer": null, "kernel_constraint": null, "bias_constraint": null}, "name": "Dense38b74a91d89b3d63bd58065ba25368f0abbb60778a04601ead141c78da0b4965f6d9f2592e64df7109f05218da13b625c67e15fbef9210240bb33ba86bd79bdb_0", "inbound_nodes": [[["Dense8af40cce1cc3de8f9b2e49a54fe7a18e5867b98814293b8c320a2d6c3d14c4913bdfbb4bd7c5912d1d50f8af678688bf54f36b0e313ccf8c8619721f11818303_0", 0, 0, {}]]]}], "input_layers": [["input_0", 0, 0]], "output_layers": [["Dense38b74a91d89b3d63bd58065ba25368f0abbb60778a04601ead141c78da0b4965f6d9f2592e64df7109f05218da13b625c67e15fbef9210240bb33ba86bd79bdb_0", 0, 0]]}
{"name": "model", "layers": [{"class_name": "InputLayer", "config": {"batch_input_shape": [null, 10], "dtype": "float32", "sparse": false, "ragged": false, "name": "input_0"}, "name": "input_0", "inbound_nodes": []}, {"class_name": "Dense", "config": {"name": "Densee711e6e454d8cb8f03d82c408a16fe55d5d9a05951d8e67425d8bdbdb24af4f60ac300450b76e8d3b95ce3d3005a935edd0819304f2d6f9de66d2c1e22591b88_0", "trainable": false, "dtype": "float32", "units": 2, "activation": "relu", "use_bias": true, "kernel_initializer": {"class_name": "GlorotUniform", "config": {"seed": null}}, "bias_initializer": {"class_name": "Zeros", "config": {}}, "kernel_regularizer": null, "bias_regularizer": null, "activity_regularizer": null, "kernel_constraint": null, "bias_constraint": null}, "name": "Densee711e6e454d8cb8f03d82c408a16fe55d5d9a05951d8e67425d8bdbdb24af4f60ac300450b76e8d3b95ce3d3005a935edd0819304f2d6f9de66d2c1e22591b88_0", "inbound_nodes": [[["input_0", 0, 0, {}]]]}, {"class_name": "Dense", "config": {"name": "Denseca4755ff3f2bc93d418e7b4305d13c39ded4c856b5ddf5168a36c204e45ef88c9cd4bf65e42d28cb0e3cc50d9875954372b9c25b68c7a421242b67c3f6d31046_0", "trainable": false, "dtype": "float32", "units": 3, "activation": "relu", "use_bias": true, "kernel_initializer": {"class_name": "GlorotUniform", "config": {"seed": null}}, "bias_initializer": {"class_name": "Zeros", "config": {}}, "kernel_regularizer": null, "bias_regularizer": null, "activity_regularizer": null, "kernel_constraint": null, "bias_constraint": null}, "name": "Denseca4755ff3f2bc93d418e7b4305d13c39ded4c856b5ddf5168a36c204e45ef88c9cd4bf65e42d28cb0e3cc50d9875954372b9c25b68c7a421242b67c3f6d31046_0", "inbound_nodes": [[["Densee711e6e454d8cb8f03d82c408a16fe55d5d9a05951d8e67425d8bdbdb24af4f60ac300450b76e8d3b95ce3d3005a935edd0819304f2d6f9de66d2c1e22591b88_0", 0, 0, {}]]]}, {"class_name": "Dense", "config": {"name": "Dense01f1cf5ad5d0fdf3a894a406d887a939c15e614da5ed908a7bc20b7d68bffcd42e2950fa0e983211b6d13b03c1f1a23d006be7fad087a3fd48c5595a5d4ed75e_0", "trainable": false, "dtype": "float32", "units": 4, "activation": "relu", "use_bias": true, "kernel_initializer": {"class_name": "GlorotUniform", "config": {"seed": null}}, "bias_initializer": {"class_name": "Zeros", "config": {}}, "kernel_regularizer": null, "bias_regularizer": null, "activity_regularizer": null, "kernel_constraint": null, "bias_constraint": null}, "name": "Dense01f1cf5ad5d0fdf3a894a406d887a939c15e614da5ed908a7bc20b7d68bffcd42e2950fa0e983211b6d13b03c1f1a23d006be7fad087a3fd48c5595a5d4ed75e_0", "inbound_nodes": [[["Denseca4755ff3f2bc93d418e7b4305d13c39ded4c856b5ddf5168a36c204e45ef88c9cd4bf65e42d28cb0e3cc50d9875954372b9c25b68c7a421242b67c3f6d31046_0", 0, 0, {}]]]}, {"class_name": "Dense", "config": {"name": "Dense37db8ab975a1cd6a9240cba662d5c0439726a0c082547720af60e1d936fd9e19aca72b47ba63d6ba1b3d24842ad122e55d669d72a44f4362fec426605a0fafb3_0", "trainable": true, "dtype": "float32", "units": 3, "activation": "relu", "use_bias": true, "kernel_initializer": {"class_name": "GlorotUniform", "config": {"seed": null}}, "bias_initializer": {"class_name": "Zeros", "config": {}}, "kernel_regularizer": null, "bias_regularizer": null, "activity_regularizer": null, "kernel_constraint": null, "bias_constraint": null}, "name": "Dense37db8ab975a1cd6a9240cba662d5c0439726a0c082547720af60e1d936fd9e19aca72b47ba63d6ba1b3d24842ad122e55d669d72a44f4362fec426605a0fafb3_0", "inbound_nodes": [[["Dense01f1cf5ad5d0fdf3a894a406d887a939c15e614da5ed908a7bc20b7d68bffcd42e2950fa0e983211b6d13b03c1f1a23d006be7fad087a3fd48c5595a5d4ed75e_0", 0, 0, {}]]]}, {"class_name": "Dense", "config": {"name": "Densea5dec81852d733bc01df6ccf65ee3d719f79dc6…
nse6710b30bac6d5f9d3c27785435850fd91c660bee934e111d295071396e3ca9befdfde0275aaa15846a2cb4e35b2eede3788a5f63ce447dbc24caf9f8a0ab6bf2_0", 0, 0, {}]]]}, {"class_name": "Dense", "config": {"name": "Dense7aed80d836c2271c4de0dfadc69a7589f2dd8537e86416f218a51f623e615c3d1880693d42d0cecfa1af33070840278f47c5a188edf1a9e193cc6131ce25cc39_0", "trainable": true, "dtype": "float32", "units": 1, "activation": "relu", "use_bias": true, "kernel_initializer": {"class_name": "GlorotUniform", "config": {"seed": null}}, "bias_initializer": {"class_name": "Zeros", "config": {}}, "kernel_regularizer": null, "bias_regularizer": null, "activity_regularizer": null, "kernel_constraint": null, "bias_constraint": null}, "name": "Dense7aed80d836c2271c4de0dfadc69a7589f2dd8537e86416f218a51f623e615c3d1880693d42d0cecfa1af33070840278f47c5a188edf1a9e193cc6131ce25cc39_0", "inbound_nodes": [[["Dense745819bc297221ff23ce906471dfac4a33fc8db7337dd8d9a7ad127732fd9e3f7022d69bf70ecb828d8a1150201d1bb44ca8ca655fedea60defd69d702be245a_0", 0, 0, {}]]]}, {"class_name": "Dense", "config": {"name": "Dense0aa74f376a457b7295f5e8ccaf1fad4c7265710bba11090f611543d627149a72efae1a16c7613fd5684eeba3eeeeeac87c217f790f74bcfe3e4c78ca6b36e446_0", "trainable": true, "dtype": "float32", "units": 1, "activation": "linear", "use_bias": true, "kernel_initializer": {"class_name": "GlorotUniform", "config": {"seed": null}}, "bias_initializer": {"class_name": "Zeros", "config": {}}, "kernel_regularizer": null, "bias_regularizer": null, "activity_regularizer": null, "kernel_constraint": null, "bias_constraint": null}, "name": "Dense0aa74f376a457b7295f5e8ccaf1fad4c7265710bba11090f611543d627149a72efae1a16c7613fd5684eeba3eeeeeac87c217f790f74bcfe3e4c78ca6b36e446_0", "inbound_nodes": [[["Dense7aed80d836c2271c4de0dfadc69a7589f2dd8537e86416f218a51f623e615c3d1880693d42d0cecfa1af33070840278f47c5a188edf1a9e193cc6131ce25cc39_0", 0, 0, {}]]]}], "input_layers": [["input_0", 0, 0]], "output_layers": [["Dense0aa74f376a457b7295f5e8ccaf1fad4c7265710bba11090f611543d627149a72efae1a16c7613fd5684eeba3eeeeeac87c217f790f74bcfe3e4c78ca6b36e446_0", 0, 0]]}
{"name": "model", "layers": [{"class_name": "InputLayer", "config": {"batch_input_shape": [null, 10], "dtype": "float32", "sparse": false, "ragged": false, "name": "input_0"}, "name": "input_0", "inbound_nodes": []}, {"class_name": "Dense", "config": {"name": "Densee711e6e454d8cb8f03d82c408a16fe55d5d9a05951d8e67425d8bdbdb24af4f60ac300450b76e8d3b95ce3d3005a935edd0819304f2d6f9de66d2c1e22591b88_0", "trainable": false, "dtype": "float32", "units": 2, "activation": "relu", "use_bias": true, "kernel_initializer": {"class_name": "GlorotUniform", "config": {"seed": null}}, "bias_initializer": {"class_name": "Zeros", "config": {}}, "kernel_regularizer": null, "bias_regularizer": null, "activity_regularizer": null, "kernel_constraint": null, "bias_constraint": null}, "name": "Densee711e6e454d8cb8f03d82c408a16fe55d5d9a05951d8e67425d8bdbdb24af4f60ac300450b76e8d3b95ce3d3005a935edd0819304f2d6f9de66d2c1e22591b88_0", "inbound_nodes": [[["input_0", 0, 0, {}]]]}, {"class_name": "Dense", "config": {"name": "Densecbbab6e9362401a2c0d0d54043a44d234c560bd11c575df5b9756f555eab3c975968582eabba17242b565e706ed197c348c32d8dda8c985cda62375ab5e32f12_0", "trainable": false, "dtype": "float32", "units": 2, "activation": "relu", "use_bias": true, "kernel_initializer": {"class_name": "GlorotUniform", "config": {"seed": null}}, "bias_initializer": {"class_name": "Zeros", "config": {}}, "kernel_regularizer": null, "bias_regularizer": null, "activity_regularizer": null, "kernel_constraint": null, "bias_constraint": null}, "name": "Densecbbab6e9362401a2c0d0d54043a44d234c560bd11c575df5b9756f555eab3c975968582eabba17242b565e706ed197c348c32d8dda8c985cda62375ab5e32f12_0", "inbound_nodes": [[["Densee711e6e454d8cb8f03d82c408a16fe55d5d9a05951d8e67425d8bdbdb24af4f60ac300450b76e8d3b95ce3d3005a935edd0819304f2d6f9de66d2c1e22591b88_0", 0, 0, {}]]]}, {"class_name": "Dense", "config": {"name": "Dense9eb3f66276bd18ea37c74a6928fb59142b079503552bc372359309587700bd32f3caa01c95027b686322e483b753f7782b610506d513b8ea0b3c3e022798f1ae_0", "trainable": false, "dtype": "float32", "units": 1, "activation": "relu", "use_bias": true, "kernel_initializer": {"class_name": "GlorotUniform", "config": {"seed": null}}, "bias_initializer": {"class_name": "Zeros", "config": {}}, "kernel_regularizer": null, "bias_regularizer": null, "activity_regularizer": null, "kernel_constraint": null, "bias_constraint": null}, "name": "Dense9eb3f66276bd18ea37c74a6928fb59142b079503552bc372359309587700bd32f3caa01c95027b686322e483b753f7782b610506d513b8ea0b3c3e022798f1ae_0", "inbound_nodes": [[["Densecbbab6e9362401a2c0d0d54043a44d234c560bd11c575df5b9756f555eab3c975968582eabba17242b565e706ed197c348c32d8dda8c985cda62375ab5e32f12_0", 0, 0, {}]]]}, {"class_name": "Dense", "config": {"name": "Dense5074ec16e4d5dba161c1a7626ae7f2c0e453b6e946b73440cc66b3786a36f04611e7c5acb3b75da6e8e5e344030bd5d61cc6e5f2aa74c3cecb719a7e4b6c1cc8_0", "trainable": true, "dtype": "float32", "units": 2, "activation": "relu", "use_bias": true, "kernel_initializer": {"class_name": "GlorotUniform", "config": {"seed": null}}, "bias_initializer": {"class_name": "Zeros", "config": {}}, "kernel_regularizer": null, "bias_regularizer": null, "activity_regularizer": null, "kernel_constraint": null, "bias_constraint": null}, "name": "Dense5074ec16e4d5dba161c1a7626ae7f2c0e453b6e946b73440cc66b3786a36f04611e7c5acb3b75da6e8e5e344030bd5d61cc6e5f2aa74c3cecb719a7e4b6c1cc8_0", "inbound_nodes": [[["Dense9eb3f66276bd18ea37c74a6928fb59142b079503552bc372359309587700bd32f3caa01c95027b686322e483b753f7782b610506d513b8ea0b3c3e022798f1ae_0", 0, 0, {}]]]}, {"class_name": "Dense", "config": {"name": "Denseeae42e7a1f085e85ba5155503ef61e1183583dd4777dded1744bfb1a3d80f284dd7f8c2527b202c4879865b6033ce05f72ebc0fbb733d0f9a22fcdddc01d2889_0", "trainable": true, "dtype": "float32", "units": 2, "activation": "relu", "use_bias": true, "kernel_initializer": {"class_name": "GlorotUniform", "config": {"seed": null}}, "bias_initializer": {"class_name": "Zeros", "config": {}}, "kernel_regularizer": null, "bias_regularizer": null, "activity_regularizer": null, "kernel_constraint": null, "bias_constraint": null}, "name": "Denseeae42e7a1f085e85ba5155503ef61e1183583dd4777dded1744bfb1a3d80f284dd7f8c2527b202c4879865b6033ce05f72ebc0fbb733d0f9a22fcdddc01d2889_0", "inbound_nodes": [[["Dense5074ec16e4d5dba161c1a7626ae7f2c0e453b6e946b73440cc66b3786a36f04611e7c5acb3b75da6e8e5e344030bd5d61cc6e5f2aa74c3cecb719a7e4b6c1cc8_0", 0, 0, {}]]]}, {"class_name": "Dense", "config": {"name": "Dense336582d030143cb26290e9f9a9b149b9e91922335f517a09cd3596d215420b29c8cbecfb26caa32d2e358b45fe88fc6649d542251742e914c1d98d96fef4dbd8_0", "trainable": true, "dtype": "float32", "units": 2, "activation": "relu", "use_bias": true, "kernel_initializer": {"class_name": "GlorotUniform", "config": {"seed": null}}, "bias_initializer": {"class_name": "Zeros", "config": {}}, "kernel_regularizer": null, "bias_regularizer": null, "activity_regularizer": null, "kernel_constraint": null, "bias_constraint": null}, "name": "Dense336582d030143cb26290e9f9a9b149b9e91922335f517a09cd3596d215420b29c8cbecfb26caa32d2e358b45fe88fc6649d542251742e914c1d98d96fef4dbd8_0", "inbound_nodes": [[["Denseeae42e7a1f085e85ba5155503ef61e1183583dd4777dded1744bfb1a3d80f284dd7f8c2527b202c4879865b6033ce05f72ebc0fbb733d0f9a22fcdddc01d2889_0", 0, 0, {}]]]}, {"class_name": "Dense", "config": {"name": "Dense17148e10d06de951bd12e0515a784e1e011de491f53a073eef5b11a39b5ab20c8a122188850f9a6c94654ccc7ee4f604f710c121d90c04a22efe6167ad3bd672_0", "trainable": true, "dtype": "float32", "units": 3, "activation": "relu", "use_bias": true, "kernel_initializer": {"class_name": "GlorotUniform", "config": {"seed": null}}, "bias_initializer": {"class_name": "Zeros", "config": {}}, "kernel_regularizer": null, "bias_regularizer": null, "activity_regularizer": null, "kernel_constraint": null, "bias_constraint": null}, "name": "Dense17148e10d06de951bd12e0515a784e1e011de491f53a073eef5b11a39b5ab20c8a122188850f9a6c94654ccc7ee4f604f710c121d90c04a22efe6167ad3bd672_0", "inbound_nodes": [[["Dense336582d030143cb26290e9f9a9b149b9e91922335f517a09cd3596d215420b29c8cbecfb26caa32d2e358b45fe88fc6649d542251742e914c1d98d96fef4dbd8_0", 0, 0, {}]]]}, {"class_name": "Dense", "config": {"name": "Dense73feb40c50e88d53574232bf0e2552dacd01107e5e7100ab4853964365c046b5b52b1209981811bffa32b2ab4415d5cc58ca69c04bce61714247e7e33a4c2c06_0", "trainable": true, "dtype": "float32", "units": 4, "activation": "relu", "use_bias": true, "kernel_initializer": {"class_name": "GlorotUniform", "config": {"seed": null}}, "bias_initializer": {"class_name": "Zeros", "config": {}}, "kernel_regularizer": null, "bias_regularizer": null, "activity_regularizer": null, "kernel_constraint": null, "bias_constraint": null}, "name": "Dense73feb40c50e88d53574232bf0e2552dacd01107e5e7100ab4853964365c046b5b52b1209981811bffa32b2ab4415d5cc58ca69c04bce61714247e7e33a4c2c06_0", "inbound_nodes": [[["Dense17148e10d06de951bd12e0515a784e1e011de491f53a073eef5b11a39b5ab20c8a122188850f9a6c94654ccc7ee4f604f710c121d90c04a22efe6167ad3bd672_0", 0, 0, {}]]]}, {"class_name": "Dense", "config": {"name": "Dense0a402f341e81f365b675360022361e045f916b8f4a9451d1b2afd42d7773db80292b56f87addc9e61d0cdf5f268f43d1e6c3ee4a3b82350252d1a71f66fc227f_0", "trainable": true, "dtype": "float32", "units": 2, "activation": "relu", "use_bias": true, "kernel_initializer": {"class_name": "GlorotUniform", "config": {"seed": null}}, "bias_initializer": {"class_name": "Zeros", "config": {}}, "kernel_regularizer": null, "bias_regularizer": null, "activity_regularizer": null, "kernel_constraint": null, "bias_constraint": null}, "name": "Dense0a402f341e81f365b675360022361e045f916b8f4a9451d1b2afd42d7773db80292b56f87addc9e61d0cdf5f268f43d1e6c3ee4a3b82350252d1a71f66fc227f_0", "inbound_nodes": [[["Dense73feb40c50e88d53574232bf0e2552dacd01107e5e7100ab4853964365c046b5b52b1209981811bffa32b2ab4415d5cc58ca69c04bce61714247e7e33a4c2c06_0", 0, 0, {}]]]}, {"class_name": "Dense", "config": {"name": "Dense330790ac9d1d92013e3c1a9d1ca98e3454ffb86acd806daccb36c008bd0aa306996621972c11dc2790b8a6c008980ea930d121247b143bfa42435b79e5dac11c_0", "trainable": true, "dtype": "float32", "units": 1, "activation": "relu", "use_bias": true, "kernel_initializer": {"class_name": "GlorotUniform", "config": {"seed": null}}, "bias_initializer": {"class_name": "Zeros", "config": {}}, "kernel_regularizer": null, "bias_regularizer": null, "activity_regularizer": null, "kernel_constraint": null, "bias_constraint": null}, "name": "Dense330790ac9d1d92013e3c1a9d1ca98e3454ffb86acd806daccb36c008bd0aa306996621972c11dc2790b8a6c008980ea930d121247b143bfa42435b79e5dac11c_0", "inbound_nodes": [[["Dense0a402f341e81f365b675360022361e045f916b8f4a9451d1b2afd42d7773db80292b56f87addc9e61d0cdf5f268f43d1e6c3ee4a3b82350252d1a71f66fc227f_0", 0, 0, {}]]]}, {"class_name": "Dense", "config": {"name": "Densedf7a681b758b5c4cd46e85b107cc4ec04d3decd14249bc1cbd97b056e6cd296d7ea43cd35dfb1d0a527fb1644c138e3bf2203e5f090dafccd6637569ad7c83d6_0", "trainable": true, "dtype": "float32", "units": 1, "activation": "linear", "use_bias": true, "kernel_initializer": {"class_name": "GlorotUniform", "config": {"seed": null}}, "bias_initializer": {"class_name": "Zeros", "config": {}}, "kernel_regularizer": null, "bias_regularizer": null, "activity_regularizer": null, "kernel_constraint": null, "bias_constraint": null}, "name": "Densedf7a681b758b5c4cd46e85b107cc4ec04d3decd14249bc1cbd97b056e6cd296d7ea43cd35dfb1d0a527fb1644c138e3bf2203e5f090dafccd6637569ad7c83d6_0", "inbound_nodes": [[["Dense330790ac9d1d92013e3c1a9d1ca98e3454ffb86acd806daccb36c008bd0aa306996621972c11dc2790b8a6c008980ea930d121247b143bfa42435b79e5dac11c_0", 0, 0, {}]]]}], "input_layers": [["input_0", 0, 0]], "output_layers": [["Densedf7a681b758b5c4cd46e85b107cc4ec04d3decd14249bc1cbd97b056e6cd296d7ea43cd35dfb1d0a527fb1644c138e3bf2203e5f090dafccd6637569ad7c83d6_0", 0, 0]]}
{"name": "model", "layers": [{"class_name": "InputLayer", "config": {"batch_input_shape": [null, 10], "dtype": "float32", "sparse": false, "ragged": false, "name": "input_0"}, "name": "input_0", "inbound_nodes": []}, {"class_name": "Dense", "config": {"name": "Dense52c2fd52bd0911375d0f70310bc27ee458b90f7330be3ec8c9b347f785f87006ec01d97fb1b2bd63c85af38321c93f1471c7b2ed3a039e1f8c89e26a9130674a_0", "trainable": false, "dtype": "float32", "units": 1, "activation": "relu", "use_bias": true, "kernel_initializer": {"class_name": "GlorotUniform", "config": {"seed": null}}, "bias_initializer": {"class_name": "Zeros", "config": {}}, "kernel_regularizer": null, "bias_regularizer": null, "activity_regularizer": null, "kernel_constraint": null, "bias_constraint": null}, "name": "Dense52c2fd52bd0911375d0f70310bc27ee458b90f7330be3ec8c9b347f785f87006ec01d97fb1b2bd63c85af38321c93f1471c7b2ed3a039e1f8c89e26a9130674a_0", "inbound_nodes": [[["input_0", 0, 0, {}]]]}, {"class_name": "Dense", "config": {"name": "Dense13c3e6647ca3a2cc5a73625eb1b11a2fe3b8b1027961a972c92ebfa5de649635792ed2bf0da49a3fc865c81bac3e23b5ad6fa1b8c62d6f26220c3c72297e31c7_0", "trainable": false, "dtype": "float32", "units": 4, "activation": "relu", "use_bias": true, "kernel_initializer": {"class_name": "GlorotUniform", "config": {"seed": null}}, "bias_initializer": {"class_name": "Zeros", "config": {}}, "kernel_regularizer": null, "bias_regularizer": null, "activity_regularizer": null, "kernel_constraint": null, "bias_constraint": null}, "name": "Dense13c3e6647ca3a2cc5a73625eb1b11a2fe3b8b1027961a972c92ebfa5de649635792ed2bf0da49a3fc865c81bac3e23b5ad6fa1b8c62d6f26220c3c72297e31c7_0", "inbound_nodes": [[["Dense52c2fd52bd0911375d0f70310bc27ee458b90f7330be3ec8c9b347f785f87006ec01d97fb1b2bd63c85af38321c93f1471c7b2ed3a039e1f8c89e26a9130674a_0", 0, 0, {}]]]}, {"class_name": "Dense", "config": {"name": "Dense8f6b6d13a62849e5f29c097bf855791533ac175649d5133f2182464c2b7f132e6f82eccf4ea51123799976e1bcdbe9416ff1374d7b04c3114fb08f57eb715ddb_0", "trainable": false, "dtype": "float32", "units": 2, "activation": "relu", "use_bias": true, "kernel_initializer": {"class_name": "GlorotUniform", "config": {"seed": null}}, "bias_initializer": {"class_name": "Zeros", "config": {}}, "kernel_regularizer": null, "bias_regularizer": null, "activity_regularizer": null, "kernel_constraint": null, "bias_constraint": null}, "name": "Dense8f6b6d13a62849e5f29c097bf855791533ac175649d5133f2182464c2b7f132e6f82eccf4ea51123799976e1bcdbe9416ff1374d7b04c3114fb08f57eb715ddb_0", "inbound_nodes": [[["Dense13c3e6647ca3a2cc5a73625eb1b11a2fe3b8b1027961a972c92ebfa5de649635792ed2bf0da49a3fc865c81bac3e23b5ad6fa1b8c62d6f26220c3c72297e31c7_0", 0, 0, {}]]]}, {"class_name": "Dense", "config": {"name": "Dense421ee0ed1dc37be3798ba1a5e49e3660cce89628b64ff01323d7e32b66288a402eafac55a72271b3c113a174b772e9b5e95621658b836646456e60b50c59d949_0", "trainable": true, "dtype": "float32", "units": 4, "activation": "relu", "use_bias": true, "kernel_initializer": {"class_name": "GlorotUniform", "config": {"seed": null}}, "bias_initializer": {"class_name": "Zeros", "config": {}}, "kernel_regularizer": null, "bias_regularizer": null, "activity_regularizer": null, "kernel_constraint": null, "bias_constraint": null}, "name": "Dense421ee0ed1dc37be3798ba1a5e49e3660cce89628b64ff01323d7e32b66288a402eafac55a72271b3c113a174b772e9b5e95621658b836646456e60b50c59d949_0", "inbound_nodes": [[["Dense8f6b6d13a62849e5f29c097bf855791533ac175649d5133f2182464c2b7f132e6f82eccf4ea51123799976e1bcdbe9416ff1374d7b04c3114fb08f57eb715ddb_0", 0, 0, {}]]]}, {"class_name": "Dense", "config": {"name": "Dense9e48d7434ac002d97e8e579e70de9167f5faa92bce6e56667b9d91cc57072406ff843d0948890e5efad790d8a0afa5a72b623d553402c021a9f1c4730b00627a_0", "trainable": true, "dtype": "float32", "units": 1, "activation": "relu", "use_bias": true, "kernel_initializer": {"class_name": "GlorotUniform", "config": {"seed": null}}, "bias_initializer": {"class_name": "Zeros", "config": {}}, "kernel_regularizer": null, "bias_regularizer": null, "activity_regularizer": null, "kernel_constraint": null, "bias_constraint": null}, "name": "Dense9e48d7434ac002d97e8e579e70de9167f5faa92bce6e56667b9d91cc57072406ff843d0948890e5efad790d8a0afa5a72b623d553402c021a9f1c4730b00627a_0", "inbound_nodes": [[["Dense421ee0ed1dc37be3798ba1a5e49e3660cce89628b64ff01323d7e32b66288a402eafac55a72271b3c113a174b772e9b5e95621658b836646456e60b50c59d949_0", 0, 0, {}]]]}, {"class_name": "Dense", "config": {"name": "Dense5a8adb81dee230e6e611091e9677a4fd73abd17d0aabc4702924df3a55425075114469f6325f8535770d3e7fab071919e02f30c7aad4e40552b4d6b82fbabda4_0", "trainable": true, "dtype": "float32", "units": 2, "activation": "relu", "use_bias": true, "kernel_initializer": {"class_name": "GlorotUniform", "config": {"seed": null}}, "bias_initializer": {"class_name": "Zeros", "config": {}}, "kernel_regularizer": null, "bias_regularizer": null, "activity_regularizer": null, "kernel_constraint": null, "bias_constraint": null}, "name": "Dense5a8adb81dee230e6e611091e9677a4fd73abd17d0aabc4702924df3a55425075114469f6325f8535770d3e7fab071919e02f30c7aad4e40552b4d6b82fbabda4_0", "inbound_nodes": [[["Dense9e48d7434ac002d97e8e579e70de9167f5faa92bce6e56667b9d91cc57072406ff843d0948890e5efad790d8a0afa5a72b623d553402c021a9f1c4730b00627a_0", 0, 0, {}]]]}, {"class_name": "Dense", "config": {"name": "Densea9fcc11adc824ba24f115f98777888b567adca06a61250f8c17849fe7bcce900df21bdc9373cff5fcfa489de64349062841b93dde65b4780e5199c8638d6dffe_0", "trainable": true, "dtype": "float32", "units": 1, "activation": "relu", "use_bias": true, "kernel_initializer": {"class_name": "GlorotUniform", "config": {"seed": null}}, "bias_initializer": {"class_name": "Zeros", "config": {}}, "kernel_regularizer": null, "bias_regularizer": null, "activity_regularizer": null, "kernel_constraint": null, "bias_constraint": null}, "name": "Densea9fcc11adc824ba24f115f98777888b567adca06a61250f8c17849fe7bcce900df21bdc9373cff5fcfa489de64349062841b93dde65b4780e5199c8638d6dffe_0", "inbound_nodes": [[["Dense5a8adb81dee230e6e611091e9677a4fd73abd17d0aabc4702924df3a55425075114469f6325f8535770d3e7fab071919e02f30c7aad4e40552b4d6b82fbabda4_0", 0, 0, {}]]]}, {"class_name": "Dense", "config": {"name": "Dense0ae352f397896805bc87c3934edc07f96e1472706796fb05be7b1ddcd0e34af07738f3560462e16dec56766506b5046b6c1699988b032f99d263ea3c5817d814_0", "trainable": true, "dtype": "float32", "units": 1, "activation": "linear", "use_bias": true, "kernel_initializer": {"class_name": "GlorotUniform", "config": {"seed": null}}, "bias_initializer": {"class_name": "Zeros", "config": {}}, "kernel_regularizer": null, "bias_regularizer": null, "activity_regularizer": null, "kernel_constraint": null, "bias_constraint": null}, "name": "Dense0ae352f397896805bc87c3934edc07f96e1472706796fb05be7b1ddcd0e34af07738f3560462e16dec56766506b5046b6c1699988b032f99d263ea3c5817d814_0", "inbound_nodes": [[["Densea9fcc11adc824ba24f115f98777888b567adca06a61250f8c17849fe7bcce900df21bdc9373cff5fcfa489de64349062841b93dde65b4780e5199c8638d6dffe_0", 0, 0, {}]]]}], "input_layers": [["input_0", 0, 0]], "output_layers": [["Dense0ae352f397896805bc87c3934edc07f96e1472706796fb05be7b1ddcd0e34af07738f3560462e16dec56766506b5046b6c1699988b032f99d263ea3c5817d814_0", 0, 0]]}
{"name": "model", "layers": [{"class_name": "InputLayer", "config": {"batch_input_shape": [null, 10], "dtype": "float32", "sparse": false, "ragged": false, "name": "input_0"}, "name": "input_0", "inbound_nodes": []}, {"class_name": "Dense", "config": {"name": "Densee711e6e454d8cb8f03d82c408a16fe55d5d9a05951d8e67425d8bdbdb24af4f60ac300450b76e8d3b95ce3d3005a935edd0819304f2d6f9de66d2c1e22591b88_0", "trainable": false, "dtype": "float32", "units": 2, "activation": "relu", "use_bias": true, "kernel_initializer": {"class_name": "GlorotUniform", "config": {"seed": null}}, "bias_initializer": {"class_name": "Zeros", "config": {}}, "kernel_regularizer": null, "bias_regularizer": null, "activity_regularizer": null, "kernel_constraint": null, "bias_constraint": null}, "name": "Densee711e6e454d8cb8f03d82c408a16fe55d5d9a05951d8e67425d8bdbdb24af4f60ac300450b76e8d3b95ce3d3005a935edd0819304f2d6f9de66d2c1e22591b88_0", "inbound_nodes": [[["input_0", 0, 0, {}]]]}, {"class_name": "Dense", "config": {"name": "Dense125fbecedca603a45ffd5054317a0f94be0901e40a9be0017e8768efa9464deed9e00a80f410562f3ae857512b2801d5b8bc5b3b5f548164878273947ca98875_0", "trainable": false, "dtype": "float32", "units": 1, "activation": "relu", "use_bias": true, "kernel_initializer": {"class_name": "GlorotUniform", "config": {"seed": null}}, "bias_initializer": {"class_name": "Zeros", "config": {}}, "kernel_regularizer": null, "bias_regularizer": null, "activity_regularizer": null, "kernel_constraint": null, "bias_constraint": null}, "name": "Dense125fbecedca603a45ffd5054317a0f94be0901e40a9be0017e8768efa9464deed9e00a80f410562f3ae857512b2801d5b8bc5b3b5f548164878273947ca98875_0", "inbound_nodes": [[["Densee711e6e454d8cb8f03d82c408a16fe55d5d9a05951d8e67425d8bdbdb24af4f60ac300450b76e8d3b95ce3d3005a935edd0819304f2d6f9de66d2c1e22591b88_0", 0, 0, {}]]]}, {"class_name": "Dense", "config": {"name": "Denseadbbd726dbc4b613e46be7d3df3cc28beb694302217e65ff0850e4dbba907b88b438d2fffca400fd5485765f321f576d240f5bb7ff8e0d4ed9568c51b75aa311_0", "trainable": false, "dtype": "float32", "units": 2, "activation": "relu", "use_bias": true, "kernel_initializer": {"class_name": "GlorotUniform", "config": {"seed": null}}, "bias_initializer": {"class_name": "Zeros", "config": {}}, "kernel_regularizer": null, "bias_regularizer": null, "activity_regularizer": null, "kernel_constraint": null, "bias_constraint": null}, "name": "Denseadbbd726dbc4b613e46be7d3df3cc28beb694302217e65ff0850e4dbba907b88b438d2fffca400fd5485765f321f576d240f5bb7ff8e0d4ed9568c51b75aa311_0", "inbound_nodes": [[["Dense125fbecedca603a45ffd5054317a0f94be0901e40a9be0017e8768efa9464deed9e00a80f410562f3ae857512b2801d5b8bc5b3b5f548164878273947ca98875_0", 0, 0, {}]]]}, {"class_name": "Dense", "config": {"name": "Dense28272a8dbdfc4b7578fa50509fdd881098cab7896be1a169d7db8202ea895036953c35c472b80c7665e62537ac3815c7d4bf27bcc08d239b29e781990b7f81ac_0", "trainable": true, "dtype": "float32", "units": 1, "activation": "relu", "use_bias": true, "kernel_initializer": {"class_name": "GlorotUniform", "config": {"seed": null}}, "bias_initializer": {"class_name": "Zeros", "config": {}}, "kernel_regularizer": null, "bias_regularizer": null, "activity_regularizer": null, "kernel_constraint": null, "bias_constraint": null}, "name": "Dense28272a8dbdfc4b7578fa50509fdd881098cab7896be1a169d7db8202ea895036953c35c472b80c7665e62537ac3815c7d4bf27bcc08d239b29e781990b7f81ac_0", "inbound_nodes": [[["Denseadbbd726dbc4b613e46be7d3df3cc28beb694302217e65ff0850e4dbba907b88b438d2fffca400fd5485765f321f576d240f5bb7ff8e0d4ed9568c51b75aa311_0", 0, 0, {}]]]}, {"class_name": "Dense", "config": {"name": "Dense6e5489839871ff80b2bfb8418fbfb7ea503e0bb1be7a779fbd648c0c521f3ab2a88f7440df96c67ded98007169c781690e85b9a72b7b7ae8d5e83e1b8d963b0f_0", "trainable": true, "dtype": "float32", "units": 2, "activation": "relu", "use_bias": true, "kernel_initializer": {"class_name": "GlorotUniform", "config": {"seed": null}}, "bias_initializer": {"class_name": "Zeros", "config": {}}, "kernel_regularizer": null, "bias_regularizer": null, "activity_regularizer": null, "kernel_constraint": null, "bias_constraint": null}, "name": "Dense6e5489839871ff80b2bfb8418fbfb7ea503e0bb1be7a779fbd648c0c521f3ab2a88f7440df96c67ded98007169c781690e85b9a72b7b7ae8d5e83e1b8d963b0f_0", "inbound_nodes": [[["Dense28272a8dbdfc4b7578fa50509fdd881098cab7896be1a169d7db8202ea895036953c35c472b80c7665e62537ac3815c7d4bf27bcc08d239b29e781990b7f81ac_0", 0, 0, {}]]]}, {"class_name": "Dense", "config": {"name": "Dense5d068bb2819030c321f5d2fcc586e6c921319428aedc25bc458b0d7d8cc3647537643ef3887cae50cf4d1fa3a35c78c6f60e610256b454298da6017b88bc7b06_0", "trainable": true, "dtype": "float32", "units": 1, "activation": "linear", "use_bias": true, "kernel_initializer": {"class_name": "GlorotUniform", "config": {"seed": null}}, "bias_initializer": {"class_name": "Zeros", "config": {}}, "kernel_regularizer": null, "bias_regularizer": null, "activity_regularizer": null, "kernel_constraint": null, "bias_constraint": null}, "name": "Dense5d068bb2819030c321f5d2fcc586e6c921319428aedc25bc458b0d7d8cc3647537643ef3887cae50cf4d1fa3a35c78c6f60e610256b454298da6017b88bc7b06_0", "inbound_nodes": [[["Dense6e5489839871ff80b2bfb8418fbfb7ea503e0bb1be7a779fbd648c0c521f3ab2a88f7440df96c67ded98007169c781690e85b9a72b7b7ae8d5e83e1b8d963b0f_0", 0, 0, {}]]]}], "input_layers": [["input_0", 0, 0]], "output_layers": [["Dense5d068bb2819030c321f5d2fcc586e6c921319428aedc25bc458b0d7d8cc3647537643ef3887cae50cf4d1fa3a35c78c6f60e610256b454298da6017b88bc7b06_0", 0, 0]]}
{"name": "model", "layers": [{"class_name": "InputLayer", "config": {"batch_input_shape": [null, 10], "dtype": "float32", "sparse": false, "ragged": false, "name": "input_0"}, "name": "input_0", "inbound_nodes": []}, {"class_name": "Dense", "config": {"name": "Dense928014dbac284f38c5f40e4e7df4459bb3125b45fb54939dd7c373fdd1a56c4987f337960a8c53b364135e0d08ff3dc3e6097186fed129c80d1abd32093ea7c1_0", "trainable": false, "dtype": "float32", "units": 4, "activation": "relu", "use_bias": true, "kernel_initializer": {"class_name": "GlorotUniform", "config": {"seed": null}}, "bias_initializer": {"class_name": "Zeros", "config": {}}, "kernel_regularizer": null, "bias_regularizer": null, "activity_regularizer": null, "kernel_constraint": null, "bias_constraint": null}, "name": "Dense928014dbac284f38c5f40e4e7df4459bb3125b45fb54939dd7c373fdd1a56c4987f337960a8c53b364135e0d08ff3dc3e6097186fed129c80d1abd32093ea7c1_0", "inbound_nodes": [[["input_0", 0, 0, {}]]]}, {"class_name": "Dense", "config": {"name": "Dense9cce5184fc73739d7cfd603c1d6c801729d1afc23ce4de7cec58191f8487e0e33d99cbd99000f236fa90b95e272e47b1907f1c51553e34651fa4e841291b49f6_0", "trainable": false, "dtype": "float32", "units": 4, "activation": "relu", "use_bias": true, "kernel_initializer": {"class_name": "GlorotUniform", "config": {"seed": null}}, "bias_initializer": {"class_name": "Zeros", "config": {}}, "kernel_regularizer": null, "bias_regularizer": null, "activity_regularizer": null, "kernel_constraint": null, "bias_constraint": null}, "name": "Dense9cce5184fc73739d7cfd603c1d6c801729d1afc23ce4de7cec58191f8487e0e33d99cbd99000f236fa90b95e272e47b1907f1c51553e34651fa4e841291b49f6_0", "inbound_nodes": [[["Dense928014dbac284f38c5f40e4e7df4459bb3125b45fb54939dd7c373fdd1a56c4987f337960a8c53b364135e0d08ff3dc3e6097186fed129c80d1abd32093ea7c1_0", 0, 0, {}]]]}, {"class_name": "Dense", "config": {"name": "Denseccd17f4b7f0490af6faa312195f4058bad796352e72a987c519c5006785fbfe7ff09db205137f9fd9e5976c823a543f717c869553d5e94434de2e327b630501b_0", "trainable": false, "dtype": "float32", "units": 1, "activation": "relu", "use_bias": true, "kernel_initializer": {"class_name": "GlorotUniform", "config": {"seed": null}}, "bias_initializer": {"class_name": "Zeros", "config": {}}, "kernel_regularizer": null, "bias_regularizer": null, "activity_regularizer": null, "kernel_constraint": null, "bias_constraint": null}, "name": "Denseccd17f4b7f0490af6faa312195f4058bad796352e72a987c519c5006785fbfe7ff09db205137f9fd9e5976c823a543f717c869553d5e94434de2e327b630501b_0", "inbound_nodes": [[["Dense9cce5184fc73739d7cfd603c1d6c801729d1afc23ce4de7cec58191f8487e0e33d99cbd99000f236fa90b95e272e47b1907f1c51553e34651fa4e841291b49f6_0", 0, 0, {}]]]}, {"class_name": "Dense", "config": {"name": "Denseae50986599f93d58577caf3a0dd282d2d56d9977c7682abb45c84146336dea43d4de092a15d2182632117291350cb34921b103f7b70b1c3c2d2e4772487c1145_0", "trainable": false, "dtype": "float32", "units": 2, "activation": "relu", "use_bias": true, "kernel_initializer": {"class_name": "GlorotUniform", "config": {"seed": null}}, "bias_initializer": {"class_name": "Zeros", "config": {}}, "kernel_regularizer": null, "bias_regularizer": null, "activity_regularizer": null, "kernel_constraint": null, "bias_constraint": null}, "name": "Denseae50986599f93d58577caf3a0dd282d2d56d9977c7682abb45c84146336dea43d4de092a15d2182632117291350cb34921b103f7b70b1c3c2d2e4772487c1145_0", "inbound_nodes": [[["Denseccd17f4b7f0490af6faa312195f4058bad796352e72a987c519c5006785fbfe7ff09db205137f9fd9e5976c823a543f717c869553d5e94434de2e327b630501b_0", 0, 0, {}]]]}, {"class_name": "Dense", "config": {"name": "Dense75769f2451987a5bc2e59cdd314d441e68635432621946d83d9184f4a7b28230f8c6f0c022dd4cab3a2e327d06b474f701abbc3e6e99a6a0f7272ba3e485dcb9_0", "trainable": false, "dtype": "float32", "units": 3, "activation": "relu", "use_bias": true, "kernel_initializer": {"class_name": "GlorotUniform", "config": {"seed": null}}, "bias_initializer": {"class_name": "Zeros", "config": {}}, "kernel_regularizer": null, "bias_regularizer": null, "activity_regularizer": null, "kernel_constraint": null, "bias_constraint": null}, "name": "Dense75769f2451987a5bc2e59cdd314d441e68635432621946d83d9184f4a7b28230f8c6f0c022dd4cab3a2e327d06b474f701abbc3e6e99a6a0f7272ba3e485dcb9_0", "inbound_nodes": [[["Denseae50986599f93d58577caf3a0dd282d2d56d9977c7682abb45c84146336dea43d4de092a15d2182632117291350cb34921b103f7b70b1c3c2d2e4772487c1145_0", 0, 0, {}]]]}, {"class_name": "Dense", "config": {"name": "Dense4114a745a8911bf3ac59d63657576182e73988e6f07d56e61330c053bbcc4743bab2cb036957087be3dd96dcbd87d5a9b8a9d3aca95c649b46c7cbe2169eb405_0", "trainable": false, "dtype": "float32", "units": 3, "activation": "relu", "use_bias": true, "kernel_initializer": {"class_name": "GlorotUniform", "config": {"seed": null}}, "bias_initializer": {"class_name": "Zeros", "config": {}}, "kernel_regularizer": null, "bias_regularizer": null, "activity_regularizer": null, "kernel_constraint": null, "bias_constraint": null}, "name": "Dense4114a745a8911bf3ac59d63657576182e73988e6f07d56e61330c053bbcc4743bab2cb036957087be3dd96dcbd87d5a9b8a9d3aca95c649b46c7cbe2169eb405_0", "inbound_nodes": [[["Dense75769f2451987a5bc2e59cdd314d441e68635432621946d83d9184f4a7b28230f8c6f0c022dd4cab3a2e327d06b474f701abbc3e6e99a6a0f7272ba3e485dcb9_0", 0, 0, {}]]]}, {"class_name": "Dense", "config": {"name": "Dense32a6eb21876b6cd4778148394d67a3aec19f3736195182aea22a87572a238b03b10289239bcaddd1cf8bb69bca0cd3df800bf38086ec5f2023c1dfc00416e887_0", "trainable": false, "dtype": "float32", "units": 4, "activation": "relu", "use_bias": true, "kernel_initializer": {"class_name": "GlorotUniform", "config": {"seed": null}}, "bias_initializer": {"class_name": "Zeros", "config": {}}, "kernel_regularizer": null, "bias_regularizer": null, "activity_regularizer": null, "kernel_constraint": null, "bias_constraint": null}, "name": "Dense32a6eb21876b6cd4778148394d67a3aec19f3736195182aea22a87572a238b03b10289239bcaddd1cf8bb69bca0cd3df800bf38086ec5f2023c1dfc00416e887_0", "inbound_nodes": [[["Dense4114a745a8911bf3ac59d63657576182e73988e6f07d56e61330c053bbcc4743bab2cb036957087be3dd96dcbd87d5a9b8a9d3aca95c649b46c7cbe2169eb405_0", 0, 0, {}]]]}, {"class_name": "Dense", "config": {"name": "Dense856f25ff25a53e2a178534af17d09c24df7ea067bf248cc0d152bfe0a711669dddfdbebdbaf8722c688a0dbc336d5b37d5283d166de01905423b6ea9d9dc8bde_0", "trainable": false, "dtype": "float32", "units": 3, "activation": "relu", "use_bias": true, "kernel_initializer": {"class_name": "GlorotUniform", "config": {"seed": null}}, "bias_initializer": {"class_name": "Zeros", "config": {}}, "kernel_regularizer": null, "bias_regularizer": null, "activity_regularizer": null, "kernel_constraint": null, "bias_constraint": null}, "name": "Dense856f25ff25a53e2a178534af17d09c24df7ea067bf248cc0d152bfe0a711669dddfdbebdbaf8722c688a0dbc336d5b37d5283d166de01905423b6ea9d9dc8bde_0", "inbound_nodes": [[["Dense32a6eb21876b6cd4778148394d67a3aec19f3736195182aea22a87572a238b03b10289239bcaddd1cf8bb69bca0cd3df800bf38086ec5f2023c1dfc00416e887_0", 0, 0, {}]]]}, {"class_name": "Dense", "config": {"name": "Denseadf949e38ef0a066870054ff0699e4c9dc0e5cb337b223c69668570565dc0f76aef32a80eece1bd90b33c9f69cecdbd412d36258a072f5c08094094482cc94c7_0", "trainable": false, "dtype": "float32", "units": 1, "activation": "linear", "use_bias": true, "kernel_initializer": {"class_name": "GlorotUniform", "config": {"seed": null}}, "bias_initializer": {"class_name": "Zeros", "config": {}}, "kernel_regularizer": null, "bias_regularizer": null, "activity_regularizer": null, "kernel_constraint": null, "bias_constraint": null}, "name": "Denseadf949e38ef0a066870054ff0699e4c9dc0e5cb337b223c69668570565dc0f76aef32a80eece1bd90b33c9f69cecdbd412d36258a072f5c08094094482cc94c7_0", "inbound_nodes": [[["Dense856f25ff25a53e2a178534af17d09c24df7ea067bf248cc0d152bfe0a711669dddfdbebdbaf8722c688a0dbc336d5b37d5283d166de01905423b6ea9d9dc8bde_0", 0, 0, {}]]]}], "input_layers": [["input_0", 0, 0]], "output_layers": [["Denseadf949e38ef0a066870054ff0699e4c9dc0e5cb337b223c69668570565dc0f76aef32a80eece1bd90b33c9f69cecdbd412d36258a072f5c08094094482cc94c7_0", 0, 0]]}
{"name": "model", "layers": [{"class_name": "InputLayer", "config": {"batch_input_shape": [null, 10], "dtype": "float32", "sparse": false, "ragged": false, "name": "input_0"}, "name": "input_0", "inbound_nodes": []}, {"class_name": "Dense", "config": {"name": "Densebe2612bdfe58306ea65bbac462c5ecf7c1df641d430b05e5f6720631359a5532b5a9e4b7ec576fdf07c3f51119d3c98d93860ea343fad32c936cb6cce92ce715_0", "trainable": false, "dtype": "float32", "units": 3, "activation": "relu", "use_bias": true, "kernel_initializer": {"class_name": "GlorotUniform", "config": {"seed": null}}, "bias_initializer": {"class_name": "Zeros", "config": {}}, "kernel_regularizer": null, "bias_regularizer": null, "activity_regularizer": null, "kernel_constraint": null, "bias_constraint": null}, "name": "Densebe2612bdfe58306ea65bbac462c5ecf7c1df641d430b05e5f6720631359a5532b5a9e4b7ec576fdf07c3f51119d3c98d93860ea343fad32c936cb6cce92ce715_0", "inbound_nodes": [[["input_0", 0, 0, {}]]]}, {"class_name": "Dense", "config": {"name": "Densecfe7a9aee11d34490f280f98a84446cd161f22ee008d02607243ec5b0947fb7ca1e1c72fdaa7ecf617faafebe475cac1aa6fc871b329de7455823dd65e4b57b0_0", "trainable": false, "dtype": "float32", "units": 3, "activation": "relu", "use_bias": true, "kernel_initializer": {"class_name": "GlorotUniform", "config": {"seed": null}}, "bias_initializer": {"class_name": "Zeros", "config": {}}, "kernel_regularizer": null, "bias_regularizer": null, "activity_regularizer": null, "kernel_constraint": null, "bias_constraint": null}, "name": "Densecfe7a9aee11d34490f280f98a84446cd161f22ee008d02607243ec5b0947fb7ca1e1c72fdaa7ecf617faafebe475cac1aa6fc871b329de7455823dd65e4b57b0_0", "inbound_nodes": [[["Densebe2612bdfe58306ea65bbac462c5ecf7c1df641d430b05e5f6720631359a5532b5a9e4b7ec576fdf07c3f51119d3c98d93860ea343fad32c936cb6cce92ce715_0", 0, 0, {}]]]}, {"class_name": "Dense", "config": {"name": "Densed5808724a4905090e2ff141e3b8b0e732ee83c1601ff7dc923901459cf6f13a4ad226497ef164f0afcad567cf1bd1a55ff07c3012180bae607106f0299047b75_0", "trainable": false, "dtype": "float32", "units": 3, "activation": "relu", "use_bias": true, "kernel_initializer": {"class_name": "GlorotUniform", "config": {"seed": null}}, "bias_initializer": {"class_name": "Zeros", "config": {}}, "kernel_regularizer": null, "bias_regularizer": null, "activity_regularizer": null, "kernel_constraint": null, "bias_constraint": null}, "name": "Densed5808724a4905090e2ff141e3b8b0e732ee83c1601ff7dc923901459cf6f13a4ad226497ef164f0afcad567cf1bd1a55ff07c3012180bae607106f0299047b75_0", "inbound_nodes": [[["Densecfe7a9aee11d34490f280f98a84446cd161f22ee008d02607243ec5b0947fb7ca1e1c72fdaa7ecf617faafebe475cac1aa6fc871b329de7455823dd65e4b57b0_0", 0, 0, {}]]]}, {"class_name": "Dense", "config": {"name": "Densed922c39ae33595bb48f170f7832bc3fa2a41b9f8128d2618268e54079d8fdf7daa063c6ff7b396f4b1142818dadfaa7ae54deca762462f8d2ae433651a55d4d2_0", "trainable": false, "dtype": "float32", "units": 1, "activation": "relu", "use_bias": true, "kernel_initializer": {"class_name": "GlorotUniform", "config": {"seed": null}}, "bias_initializer": {"class_name": "Zeros", "config": {}}, "kernel_regularizer": null, "bias_regularizer": null, "activity_regularizer": null, "kernel_constraint": null, "bias_constraint": null}, "name": "Densed922c39ae33595bb48f170f7832bc3fa2a41b9f8128d2618268e54079d8fdf7daa063c6ff7b396f4b1142818dadfaa7ae54deca762462f8d2ae433651a55d4d2_0", "inbound_nodes": [[["Densed5808724a4905090e2ff141e3b8b0e732ee83c1601ff7dc923901459cf6f13a4ad226497ef164f0afcad567cf1bd1a55ff07c3012180bae607106f0299047b75_0", 0, 0, {}]]]}, {"class_name": "Dense", "config": {"name": "Dense10a0b8d15f032916eaa7b14ba49c5550b16cb4dae14084a426d735addfdb67704223cb82f7996d3482df62436993d4e334f510382d92fd457fdb420cbf339a47_0", "trainable": true, "dtype": "float32", "units": 2, "activation": "relu", "use_bias": true, "kernel_initializer": {"class_name": "GlorotUniform", "config": {"seed": null}}, "bias_initializer": {"class_name": "Zeros", "config": {}}, "kernel_regularizer": null, "bias_regularizer": null, "activity_regularizer": null, "kernel_constraint": null, "bias_constraint": null}, "name": "Dense10a0b8d15f032916eaa7b14ba49c5550b16cb4dae14084a426d735addfdb67704223cb82f7996d3482df62436993d4e334f510382d92fd457fdb420cbf339a47_0", "inbound_nodes": [[["Densed922c39ae33595bb48f170f7832bc3fa2a41b9f8128d2618268e54079d8fdf7daa063c6ff7b396f4b1142818dadfaa7ae54deca762462f8d2ae433651a55d4d2_0", 0, 0, {}]]]}, {"class_name": "Dense", "config": {"name": "Dense2868b068b267a9b060f7f9a425f02ff6bf16cfc28a9176d55f3f4e60f046fa1c1216dd113d94dbedf59c95908a43e03535413c09ee3c33efc38f72198117a007_0", "trainable": true, "dtype": "float32", "units": 1, "activation": "relu", "use_bias": true, "kernel_initializer": {"class_name": "GlorotUniform", "config": {"seed": null}}, "bias_initializer": {"class_name": "Zeros", "config": {}}, "kernel_regularizer": null, "bias_regularizer": null, "activity_regularizer": null, "kernel_constraint": null, "bias_constraint": null}, "name": "Dense2868b068b267a9b060f7f9a425f02ff6bf16cfc28a9176d55f3f4e60f046fa1c1216dd113d94dbedf59c95908a43e03535413c09ee3c33efc38f72198117a007_0", "inbound_nodes": [[["Dense10a0b8d15f032916eaa7b14ba49c5550b16cb4dae14084a426d735addfdb67704223cb82f7996d3482df62436993d4e334f510382d92fd457fdb420cbf339a47_0", 0, 0, {}]]]}, {"class_name": "Dense", "config": {"name": "Dense1eded9abdcea4a61d2c566486cf1b1e365e622b0968a60ddb79d87c01d646c0c8df8809d178126b2214555242b5202e325fa5dc720ce86b842c0428999555dc5_0", "trainable": true, "dtype": "float32", "units": 2, "activation": "relu", "use_bias": true, "kernel_initializer": {"class_name": "GlorotUniform", "config": {"seed": null}}, "bias_initializer": {"class_name": "Zeros", "config": {}}, "kernel_regularizer": null, "bias_regularizer": null, "activity_regularizer": null, "kernel_constraint": null, "bias_constraint": null}, "name": "Dense1eded9abdcea4a61d2c566486cf1b1e365e622b0968a60ddb79d87c01d646c0c8df8809d178126b2214555242b5202e325fa5dc720ce86b842c0428999555dc5_0", "inbound_nodes": [[["Dense2868b068b267a9b060f7f9a425f02ff6bf16cfc28a9176d55f3f4e60f046fa1c1216dd113d94dbedf59c95908a43e03535413c09ee3c33efc38f72198117a007_0", 0, 0, {}]]]}, {"class_name": "Dense", "config": {"name": "Densef48d8d7317bad1cb74e35d5ca3276307c74091c50e9082a48b0713fdd0994983fd57d03868ca8a4c47eafe97fc5481a28e78592cb87ccb3438bf4ed1d7f8fd13_0", "trainable": true, "dtype": "float32", "units": 4, "activation": "relu", "use_bias": true, "kernel_initializer": {"class_name": "GlorotUniform", "config": {"seed": null}}, "bias_initializer": {"class_name": "Zeros", "config": {}}, "kernel_regularizer": null, "bias_regularizer": null, "activity_regularizer": null, "kernel_constraint": null, "bias_constraint": null}, "name": "Densef48d8d7317bad1cb74e35d5ca3276307c74091c50e9082a48b0713fdd0994983fd57d03868ca8a4c47eafe97fc5481a28e78592cb87ccb3438bf4ed1d7f8fd13_0", "inbound_nodes": [[["Dense1eded9abdcea4a61d2c566486cf1b1e365e622b0968a60ddb79d87c01d646c0c8df8809d178126b2214555242b5202e325fa5dc720ce86b842c0428999555dc5_0", 0, 0, {}]]]}, {"class_name": "Dense", "config": {"name": "Densefe0ea23196cfba32be7aecccda45c294a9e57de0330880de11651c6dc734fca453f1c86e1b52c3703024a5eb9a482b349778e7f9f96bd931083b97f3b1726101_0", "trainable": true, "dtype": "float32", "units": 1, "activation": "linear", "use_bias": true, "kernel_initializer": {"class_name": "GlorotUniform", "config": {"seed": null}}, "bias_initializer": {"class_name": "Zeros", "config": {}}, "kernel_regularizer": null, "bias_regularizer": null, "activity_regularizer": null, "kernel_constraint": null, "bias_constraint": null}, "name": "Densefe0ea23196cfba32be7aecccda45c294a9e57de0330880de11651c6dc734fca453f1c86e1b52c3703024a5eb9a482b349778e7f9f96bd931083b97f3b1726101_0", "inbound_nodes": [[["Densef48d8d7317bad1cb74e35d5ca3276307c74091c50e9082a48b0713fdd0994983fd57d03868ca8a4c47eafe97fc5481a28e78592cb87ccb3438bf4ed1d7f8fd13_0", 0, 0, {}]]]}], "input_layers": [["input_0", 0, 0]], "output_layers": [["Densefe0ea23196cfba32be7aecccda45c294a9e57de0330880de11651c6dc734fca453f1c86e1b52c3703024a5eb9a482b349778e7f9f96bd931083b97f3b1726101_0", 0, 0]]}
{"name": "model", "layers": [{"class_name": "InputLayer", "config": {"batch_input_shape": [null, 10], "dtype": "float32", "sparse": false, "ragged": false, "name": "input_0"}, "name": "input_0", "inbound_nodes": []}, {"class_name": "Dense", "config": {"name": "Dense928014dbac284f38c5f40e4e7df4459bb3125b45fb54939dd7c373fdd1a56c4987f337960a8c53b364135e0d08ff3dc3e6097186fed129c80d1abd32093ea7c1_0", "trainable": false, "dtype": "float32", "units": 4, "activation": "relu", "use_bias": true, "kernel_initializer": {"class_name": "GlorotUniform", "config": {"seed": null}}, "bias_initializer": {"class_name": "Zeros", "config": {}}, "kernel_regularizer": null, "bias_regularizer": null, "activity_regularizer": null, "kernel_constraint": null, "bias_constraint": null}, "name": "Dense928014dbac284f38c5f40e4e7df4459bb3125b45fb54939dd7c373fdd1a56c4987f337960a8c53b364135e0d08ff3dc3e6097186fed129c80d1abd32093ea7c1_0", "inbound_nodes": [[["input_0", 0, 0, {}]]]}, {"class_name": "Dense", "config": {"name": "Dense8d8ad08ba57c5cca9e2b771cb99d1b7bf10bcb3b54027fd115ddb816884b0fcaeaa8c3fa5acd458833f70340a2120fe2b5ecb5d107b6b1abe122b10bd5e9130a_0", "trainable": false, "dtype": "float32", "units": 2, "activation": "relu", "use_bias": true, "kernel_initializer": {"class_name": "GlorotUniform", "config": {"seed": null}}, "bias_initializer": {"class_name": "Zeros", "config": {}}, "kernel_regularizer": null, "bias_regularizer": null, "activity_regularizer": null, "kernel_constraint": null, "bias_constraint": null}, "name": "Dense8d8ad08ba57c5cca9e2b771cb99d1b7bf10bcb3b54027fd115ddb816884b0fcaeaa8c3fa5acd458833f70340a2120fe2b5ecb5d107b6b1abe122b10bd5e9130a_0", "inbound_nodes": [[["Dense928014dbac284f38c5f40e4e7df4459bb3125b45fb54939dd7c373fdd1a56c4987f337960a8c53b364135e0d08ff3dc3e6097186fed129c80d1abd32093ea7c1_0", 0, 0, {}]]]}, {"class_name": "Dense", "config": {"name": "Densedde2ed6060a2f731d8b678ece2d3857f93dd03920954929541d150a33e5e0bafe1add178eb4a2785e7e9b2932e140bac16371cf46f0149aabffffce56260f393_0", "trainable": true, "dtype": "float32", "units": 2, "activation": "relu", "use_bias": true, "kernel_initializer": {"class_name": "GlorotUniform", "config": {"seed": null}}, "bias_initializer": {"class_name": "Zeros", "config": {}}, "kernel_regularizer": null, "bias_regularizer": null, "activity_regularizer": null, "kernel_constraint": null, "bias_constraint": null}, "name": "Densedde2ed6060a2f731d8b678ece2d3857f93dd03920954929541d150a33e5e0bafe1add178eb4a2785e7e9b2932e140bac16371cf46f0149aabffffce56260f393_0", "inbound_nodes": [[["Dense8d8ad08ba57c5cca9e2b771cb99d1b7bf10bcb3b54027fd115ddb816884b0fcaeaa8c3fa5acd458833f70340a2120fe2b5ecb5d107b6b1abe122b10bd5e9130a_0", 0, 0, {}]]]}, {"class_name": "Dense", "config": {"name": "Dense4b5ef1cfa5bb6470ee4f4335728777248cae70e4c8fb50307cb605f54fe28f844042d7ae4f5674b02e035c3f97678fdad657cba5764320e327f3669367a78d3f_0", "trainable": true, "dtype": "float32", "units": 4, "activation": "relu", "use_bias": true, "kernel_initializer": {"class_name": "GlorotUniform", "config": {"seed": null}}, "bias_initializer": {"class_name": "Zeros", "config": {}}, "kernel_regularizer": null, "bias_regularizer": null, "activity_regularizer": null, "kernel_constraint": null, "bias_constraint": null}, "name": "Dense4b5ef1cfa5bb6470ee4f4335728777248cae70e4c8fb50307cb605f54fe28f844042d7ae4f5674b02e035c3f97678fdad657cba5764320e327f3669367a78d3f_0", "inbound_nodes": [[["Densedde2ed6060a2f731d8b678ece2d3857f93dd03920954929541d150a33e5e0bafe1add178eb4a2785e7e9b2932e140bac16371cf46f0149aabffffce56260f393_0", 0, 0, {}]]]}, {"class_name": "Dense", "config": {"name": "Dense0ec935679a1504472597006f1a372613cc52cf1cf9ae58ce1e2c3e384dab007e7d80b589ef071c85f1eb94da035b8317ba1d3a35df7efe19c517fcc5c60c7030_0", "trainable": true, "dtype": "float32", "units": 4, "activation": "relu", "use_bias": true, "kernel_initializer": {"class_name": "GlorotUniform", "config": {"seed": null}}, "bias_initializer": {"class_name": "Zeros", "config": {}}, "kernel_regularizer": null, "bias_regularizer": null, "activity_regularizer": null, "kernel_constraint": null, "bias_constraint": null}, "name": "Dense0ec935679a1504472597006f1a372613cc52cf1cf9ae58ce1e2c3e384dab007e7d80b589ef071c85f1eb94da035b8317ba1d3a35df7efe19c517fcc5c60c7030_0", "inbound_nodes": [[["Dense4b5ef1cfa5bb6470ee4f4335728777248cae70e4c8fb50307cb605f54fe28f844042d7ae4f5674b02e035c3f97678fdad657cba5764320e327f3669367a78d3f_0", 0, 0, {}]]]}, {"class_name": "Dense", "config": {"name": "Dense75783e168e953d1dd3f4d397d203707750853b6a3d4f0dd4caba2f75c09ca2d9c86e041ce40219d155cd76c0c2b935bdab7a04d63619e55097bcc43ad53265ad_0", "trainable": true, "dtype": "float32", "units": 3, "activation": "relu", "use_bias": true, "kernel_initializer": {"class_name": "GlorotUniform", "config": {"seed": null}}, "bias_initializer": {"class_name": "Zeros", "config": {}}, "kernel_regularizer": null, "bias_regularizer": null, "activity_regularizer": null, "kernel_constraint": null, "bias_constraint": null}, "name": "Dense75783e168e953d1dd3f4d397d203707750853b6a3d4f0dd4caba2f75c09ca2d9c86e041ce40219d155cd76c0c2b935bdab7a04d63619e55097bcc43ad53265ad_0", "inbound_nodes": [[["Dense0ec935679a1504472597006f1a372613cc52cf1cf9ae58ce1e2c3e384dab007e7d80b589ef071c85f1eb94da035b8317ba1d3a35df7efe19c517fcc5c60c7030_0", 0, 0, {}]]]}, {"class_name": "Dense", "config": {"name": "Dense470c4c02a6b812cf7d0c93160e7ee583c7b1dc199a0149609f90d4076eb0d3cfeff9bb322b32044f2d2d94106614d7e2d737e64f3dce0873c1ed67d1b3dee534_0", "trainable": true, "dtype": "float32", "units": 3, "activation": "relu", "use_bias": true, "kernel_initializer": {"class_name": "GlorotUniform", "config": {"seed": null}}, "bias_initializer": {"class_name": "Zeros", "config": {}}, "kernel_regularizer": null, "bias_regularizer": null, "activity_regularizer": null, "kernel_constraint": null, "bias_constraint": null}, "name": "Dense470c4c02a6b812cf7d0c93160e7ee583c7b1dc199a0149609f90d4076eb0d3cfeff9bb322b32044f2d2d94106614d7e2d737e64f3dce0873c1ed67d1b3dee534_0", "inbound_nodes": [[["Dense75783e168e953d1dd3f4d397d203707750853b6a3d4f0dd4caba2f75c09ca2d9c86e041ce40219d155cd76c0c2b935bdab7a04d63619e55097bcc43ad53265ad_0", 0, 0, {}]]]}, {"class_name": "Dense", "config": {"name": "Densed9a49f9362718e1a55bea4462145c9a02caf26ff5fc9fd997040eb88829b7d4d365538b1d2f90a4e5a5a7a55807db43ccc818b1c034c39fd6c61fa96774076c8_0", "trainable": true, "dtype": "float32", "units": 3, "activation": "relu", "use_bias": true, "kernel_initializer": {"class_name": "GlorotUniform", "config": {"seed": null}}, "bias_initializer": {"class_name": "Zeros", "config": {}}, "kernel_regularizer": null, "bias_regularizer": null, "activity_regularizer": null, "kernel_constraint": null, "bias_constraint": null}, "name": "Densed9a49f9362718e1a55bea4462145c9a02caf26ff5fc9fd997040eb88829b7d4d365538b1d2f90a4e5a5a7a55807db43ccc818b1c034c39fd6c61fa96774076c8_0", "inbound_nodes": [[["Dense470c4c02a6b812cf7d0c93160e7ee583c7b1dc199a0149609f90d4076eb0d3cfeff9bb322b32044f2d2d94106614d7e2d737e64f3dce0873c1ed67d1b3dee534_0", 0, 0, {}]]]}, {"class_name": "Dense", "config": {"name": "Dense4cf67ce15bd2eae758e379f4efcea892c3b712a43949a295ae2b5cd3d1d83ebddf5da749ec80bc5752802af22470b117e98f2891e91476e34024edf7fd5885e7_0", "trainable": true, "dtype": "float32", "units": 1, "activation": "relu", "use_bias": true, "kernel_initializer": {"class_name": "GlorotUniform", "config": {"seed": null}}, "bias_initializer": {"class_name": "Zeros", "config": {}}, "kernel_regularizer": null, "bias_regularizer": null, "activity_regularizer": null, "kernel_constraint": null, "bias_constraint": null}, "name": "Dense4cf67ce15bd2eae758e379f4efcea892c3b712a43949a295ae2b5cd3d1d83ebddf5da749ec80bc5752802af22470b117e98f2891e91476e34024edf7fd5885e7_0", "inbound_nodes": [[["Densed9a49f9362718e1a55bea4462145c9a02caf26ff5fc9fd997040eb88829b7d4d365538b1d2f90a4e5a5a7a55807db43ccc818b1c034c39fd6c61fa96774076c8_0", 0, 0, {}]]]}, {"class_name": "Dense", "config": {"name": "Dense6c57493ff986f8cf5f55a1a73ffce09e6abf08b79b3d379856c599ff9783b33ddb662eed76998931b3ae29022acefda6b080a00ac5b154905f3b9105be6d452f_0", "trainable": true, "dtype": "float32", "units": 1, "activation": "linear", "use_bias": true, "kernel_initializer": {"class_name": "GlorotUniform", "config": {"seed": null}}, "bias_initializer": {"class_name": "Zeros", "config": {}}, "kernel_regularizer": null, "bias_regularizer": null, "activity_regularizer": null, "kernel_constraint": null, "bias_constraint": null}, "name": "Dense6c57493ff986f8cf5f55a1a73ffce09e6abf08b79b3d379856c599ff9783b33ddb662eed76998931b3ae29022acefda6b080a00ac5b154905f3b9105be6d452f_0", "inbound_nodes": [[["Dense4cf67ce15bd2eae758e379f4efcea892c3b712a43949a295ae2b5cd3d1d83ebddf5da749ec80bc5752802af22470b117e98f2891e91476e34024edf7fd5885e7_0", 0, 0, {}]]]}], "input_layers": [["input_0", 0, 0]], "output_layers": [["Dense6c57493ff986f8cf5f55a1a73ffce09e6abf08b79b3d379856c599ff9783b33ddb662eed76998931b3ae29022acefda6b080a00ac5b154905f3b9105be6d452f_0", 0, 0]]}
